model_epoch_30-x2.pth (torch, 235733 bytes, 8 tensors)

conv1.weight f4 [64, 1, 5, 5]
00000000: cb4c 863e b8e5 3e3e d9f5 1ebc 88ce 023e
00000010: 99d6 003e 3ad8 33be 8b52 b43d 3b6b f1bd
00000020: 8aad 5c3e f8a6 a93d 7996 293d 2446 c8bc
00000030: 104f 2bbe 3395 c1bd 5f79 b93d de46 5ebe
00000040: 4e44 8c3e 0cc1 d63d 89b4 60be 85dd 8c3e
00000050: 996b 0abe b8c5 313e a7b1 053f b700 0b3e
00000060: 62ef d0bd facb 6cbe cfa6 cabc 8b4c 0c3d
00000070: 99f2 3f3e 0323 04bd cec9 bf3b 1bbe 2b3e
00000080: 613e 463e 9964 933d 2d2b cdbd f4a8 85bd
00000090: 0306 9c3d 0a4d dabd e56b 503e 40b4 de3d
000000a0: 050a 98be f084 b43d 8c7a f73d e296 4ebe
000000b0: ce2f 5ebe c2ed 9c3c 03e3 99bd 75e0 e6bd
000000c0: af9c 783e 4d56 843e 4cc8 c6be 9576 0bbe
000000d0: 5768 693d 04af a73d 25df f53d a95c b43a
000000e0: feea 773e dd72 82bd ce19 8bbd 9540 323e
000000f0: 7958 52bd 6c7d 5bbe 38f4 8abe 4d1f 023e
00000100: 3bbf 8ebc 672a 4fbd f214 643e a55b 443e
00000110: 0c46 b13e 988e 93bc ec31 a5bd 4df4 e0be
00000120: 4e99 ad3d 3ae7 bb3c 7a6a bbbd 9691 a8be
00000130: 4878 273e 275b c73e 2316 0bbd 2aec 8e3e
00000140: 799b 01be 134f 9e3e 4b7b 50bd c187 aa3d
00000150: 552c a8bd 9cdc b0bc 7aa3 e1bd d55e 6bbd
00000160: a947 65be 0123 113e 88e1 babe d3bc 363e
00000170: a713 7a3d f729 20bc 7bd4 20bd bcf0 573e
00000180: 4c17 633e e0b3 2ebe c5ff f63d 6a04 12be
00000190: b62d a1bd da96 86be 15ba c63d b713 9e3d
000001a0: b7dd b8be 2f7d c93e 64fa 84bd ef03 adbd
000001b0: 69ff 083e b0c7 5bbe 4ca4 a5bb 28fe e13a
000001c0: b2d7 27be 0372 ec3d 320d 1a3d e1c4 7abd
000001d0: a83a 1c3e 79f9 cc3e bd57 0b3e 097b 3cbe
000001e0: fbf5 863e 4848 973d 2510 c63e ab14 f4bd
000001f0: d658 ccbd c3c3 cb3d 0e2e 543e af1e 24be
00000200: 1c4f 8dbc db30 b1bc aba6 923d ad5f 74be
00000210: 7c84 803e 2203 423e 71fb d83e c154 0dbe
00000220: 4276 e73c d2be 1fbe 1c64 95be 9cb9 4abc
00000230: b7dd 27be eaeb ca3d 646e 353d 246f 933e
00000240: 74ac cf3b be6c 5fbe d172 2dbd d32e 9fbd
00000250: a9f7 ea3e d176 8a3e 14da 043c 60fa 99be
00000260: fe0f 2bbd aee9 53be e95b 7bbe 130d 87bd
00000270: df30 183e f7ec 023d 9d3e 33bd 65ff cb3d
00000280: 3f95 293d 9ed8 24bd cae5 833e 10d0 353d
00000290: cfe0 b2bc 859c 843e 1841 093a 9919 973e
000002a0: 7e58 bb3d 7af3 90be db2b 07be db2d 933e
000002b0: e612 07bd 14c4 fe3c ce8c f83d ba17 823d
000002c0: df74 ed3a e906 24be 615c 8e3e 2cb6 efbd
000002d0: 82f4 4c3e c398 7d3b 4ab1 f3bd bc07 f4bc
000002e0: d42a 5fbe 0b72 ea3d ce6a cbbc 921e cb3e
000002f0: ad95 e5bc fcc0 103e 2c5e 32be 4a16 8dbd
00000300: c099 4abe 0751 593e ca51 8ebd adea 50bd
00000310: e6e8 c2bd 4199 523e c23b b13d fca6 b83d
00000320: 43b0 7ebd 1d1e 803e 5987 d8bd c72a 613e
00000330: 1b64 813c 3fc9 babd 73fc 383e 7d52 35be
00000340: 42ad 9cbc 8056 c13e 3b3b f33b c3bf 113e
00000350: ef70 3d3e bb5f 7fbd 1a1c 69be 3a51 24bd
00000360: 6b25 683d fcf6 57be e76a ccbd f8f7 c73d
00000370: 7314 d73d 3779 c9ba 249f 473d d966 8abd
00000380: 2666 bbbc 0f6c 99bb 1250 8a3e 29cf 43bd
00000390: bec5 6ebe ebc1 91bd a639 e2bc 9ce8 9d3d
000003a0: 22a5 13bd 733c 5bbe 9b42 f13c fa75 cdbd
000003b0: c07e 03be d0e0 77be f1a5 c43e 5dfc abbc
000003c0: e100 6a3e ff39 9bbd de76 73bd 28c4 68bd
000003d0: 5268 95bd da7b 3ebe 6708 293e 42fa bb3d
000003e0: 63ef a93e 9e0a 3a3e 3bd6 55bd b973 d4bc
000003f0: 8b08 053e 1789 473e 4733 4c3e e593 233e
0.26230463 0.18642318 -0.009702169 0.12774098 0.12581863 -0.17562953 0.08804806 -0.11788031
0.21550575 0.082838 0.041403268 -0.024447508 -0.16729379 -0.094522856 0.09056353 -0.21706721
0.27395862 0.104860395 -0.21943869 0.27512756 -0.13517608 0.1736058 0.522242 0.13574491
-0.10201909 -0.23124686 -0.024737744 0.034252685 0.18744887 -0.032259952 0.0058529144 0.16771738
0.19359733 0.07196922 -0.10018001 -0.06526366 0.07618334 -0.10659225 0.20353658 0.10874224
-0.29695144 0.08814418 0.12083921 -0.20174745 -0.21697924 0.01915634 -0.07514002 -0.112732805
0.2427852 0.25847092 -0.3882469 -0.13619454 0.05698427 0.081876785 0.12005452 0.0013760525
0.24210736 -0.06369565 -0.06792031 0.17407449 -0.051353905 -0.21434563 -0.2713945 0.12707253
-0.01742517 -0.050577547 0.22273615 0.19175585 0.34623754 -0.01801233 -0.080661625 -0.43936387
0.08476506 0.022937406 -0.09151168 -0.32923573 0.16354477 0.3893673 -0.033956658 0.27914554
-0.12656964 0.30919704 -0.05089883 0.08326674 -0.08211581 -0.02158957 -0.11017509 -0.057463486
-0.22390617 0.14173509 -0.36500192 0.17845468 0.0610539 -0.00977563 -0.039265137 0.21087927
0.22176856 -0.17060804 0.12060503 -0.14259496 -0.07870047 -0.26286966 0.09703461 0.07718604
-0.36106655 0.3935332 -0.06493071 -0.08448016 0.13378681 -0.21462893 -0.005054986 0.0017241882
-0.16390875 0.115451835 0.03761024 -0.061222915 0.1525675 0.40034083 0.13607688 -0.18406309
0.26359543 0.073868334 0.38684192 -0.119180046 -0.099778816 0.09949448 0.20720693 -0.1602733
-0.017249636 -0.021629741 0.07160696 -0.23864622 0.25101078 0.18946508 0.42379335 -0.13801862
0.028254632 -0.15600136 -0.2917794 -0.012373354 -0.16393171 0.09908278 0.04429473 0.2879573
0.0063376967 -0.21818826 -0.042345826 -0.07772603 0.45892075 0.27043775 0.0081086345 -0.30073833
-0.0417633 -0.2069461 -0.2454678 -0.065942906 0.14862393 0.03196427 -0.043760885 0.09960822
0.041402098 -0.040245645 0.25761253 0.044387877 -0.021835713 0.25900665 0.0005235835 0.29511717
0.09147738 -0.28310758 -0.13200323 0.28745922 -0.032977007 0.031099357 0.12136231 0.06352182
0.0018116495 -0.16018261 0.27804855 -0.117046684 0.20015147 0.003869579 -0.118990496 -0.029788844
-0.21793681 0.11447533 -0.024831202 0.3967176 -0.028025473 0.14136118 -0.17418736 -0.06889017
-0.19785213 0.21222316 -0.06949194 -0.051005054 -0.09517078 0.20566274 0.08653976 0.09016225
-0.062179815 0.25022975 -0.105726905 0.21988975 0.015794804 -0.09120416 0.18065052 -0.17707248
-0.019125585 0.37761307 0.0074228323 0.14233308 0.18500112 -0.062347155 -0.22764626 -0.040116526
0.05667631 -0.21090311 -0.099813275 0.09764093 0.10501947 -0.0015371208 0.048735753 -0.06757898
-0.022875857 -0.004682071 0.27014214 -0.047804985 -0.2331762 -0.07117065 -0.02761538 0.07710382
-0.036046155 -0.21409778 0.029450705 -0.10032268 -0.1284132 -0.24206853 0.38407853 -0.02099436
0.22851898 -0.07579421 -0.059439532 -0.056827694 -0.07295288 -0.18601933 0.16507111 0.09178592
0.3319045 0.18168113 -0.05220626 -0.025934087 0.1299154 0.1948589 0.19941436 0.15974386

conv1.bias f4 [64]
00000000: d2d4 21be ea7c 3abc 3edc 8bbd cf97 fabc
00000010: a466 3b3d 817f 053e c1bd 3a3e 85a6 78bd
00000020: 0cb3 60bd 765b 013e 42d3 2a3e f693 3d3e
00000030: 4073 6f3d 9287 ff3d bec1 4e3d 9f2c 12be
00000040: 2ea1 24bd 89d4 24bd 0687 9c3b 831b cebc
00000050: 8998 4c3d 6caf 843d 44aa 93bd 4826 ed3b
00000060: 56e2 493e 2f34 063e 15a1 9f3b ce0d 4dbd
00000070: 675a 2dbc eb44 9b3d f440 11bd 85cf 3f3e
00000080: 0a3e ae3c 57e7 08be 529c 303d b9bb 7f3c
00000090: 78e0 2bbe 44ec a0bd 3a9d 44be 9bd6 563d
000000a0: 949e 88bb cfb6 3c3d fbae cebd 4a22 c0bd
000000b0: bd32 afbd f86d 64bb 4a0a 1abe 1233 c5bd
000000c0: 0d12 123d 8701 2ebe 9a4b 213e 5cf6 153e
000000d0: 0cf5 cd3d 482b 053e d27f c9bc 8411 003e
000000e0: a3d6 063d 94c5 293e 17c1 38be 3eb7 97bc
000000f0: 9759 c83d 4b04 c93d ac9a 07be 6d5d 363e
-0.15803841 -0.011382321 -0.06829117 -0.030589966 0.045752183 0.1303692 0.18236448 -0.06070568
-0.054858252 0.12632546 0.16682151 0.18513474 0.05845952 0.1247703 0.050477736 -0.14274834
-0.040192775 -0.04024175 0.0047768382 -0.025159603 0.049950156 0.064787716 -0.0721021 0.0072372295
0.19715247 0.13105844 0.0048714974 -0.050061993 -0.010580636 0.075815044 -0.035462335 0.18731506
0.021269817 -0.13369499 0.04311783 0.015608721 -0.16784847 -0.07857564 -0.19200602 0.052450757
-0.0041692946 0.046072777 -0.100919686 -0.0938154 -0.085545994 -0.0034855586 -0.15042987 -0.096288815
0.035661746 -0.1699277 0.15751496 0.1464476 0.100565046 0.13004792 -0.024597082 0.12506682
0.032919537 0.16579276 -0.18042408 -0.018519994 0.09782713 0.09815272 -0.13242596 0.17809077

conv2.weight f4 [64, 64, 3, 3]
00000000: 9779 803d ab36 edbc e5c9 683c cce6 d8bc
00000010: 8362 ddbc ef9c 823d 1324 ef3d 07e5 bfbc
00000020: 76a9 d13c 533d 7cbc 0259 4e3d be2f 2bbb
00000030: be5b cabc 9d9d c9bc a9d1 b8bd bc21 573c
00000040: 5df8 253c 4cf9 65bd d933 d73a 2af4 b2bd
00000050: de75 a93d 553c 9abd 6ec0 95bc 521d 3a3c
00000060: 62b7 193d 03ac 24bd 8b18 1bbe 6bd9 b93b
00000070: cbf2 afbc 1ea2 a03c 2a7a 213e 8700 843c
00000080: 71f9 07bd 8598 f53c 1dd5 b0bd a16f 443d
00000090: 0e15 34bd 3d8a cb3b 15be 523d 1f8f cdbb
000000a0: ff45 fa3c 559d 81bd bd82 273d ad28 40bb
000000b0: fac2 e33c 6cde ae3c 96ba 43bd 1883 aa3c
000000c0: 1789 7bbb ce8d acbc 7338 cabc 1bbc 55bd
000000d0: 6e4f e83c 4738 863c 1dbd 24bd 9f66 153d
000000e0: d883 59bd de3b 233d 7087 65bc df2e 5e3d
000000f0: 251b a5bb 23cb 0e3d 8183 44bb 96f4 9ebd
00000100: 921a 21bd 9e17 19bc a00b 25be 06ed c43b
00000110: a230 0abc 1c03 363d f5e0 3abd cd95 71bd
00000120: 198e f1bd 23c7 e9bd 8847 4bbd 38f9 19bd
00000130: 069a 423d 3d0a 9c3c 5d81 e63c 4625 29be
00000140: ae5c 3e3d 3660 71bc b857 f03d 358d c2bc
00000150: cbcd ec3c 1b08 273c d7b1 52bd 19d5 d13c
00000160: 026f b53c cdb3 3d3d 910d a63a 09d8 a83b
00000170: af02 143d d01a ae3d 2dec 5c3d eba7 773d
00000180: 3dbd d63d f7ad 033d 0f8e 9d3d 52d7 68bd
00000190: 33b8 903d f976 b5bd 551b 7a3c a44d 59bc
000001a0: 2fe0 913d 940d 97bc 3153 0cbd 99a7 8e3d
000001b0: 85b3 ebbc feef 82bc f76e 13be b266 a9bd
000001c0: d39d a43c 57fd ae3c b68e 9abb 3371 073c
000001d0: af74 2dbb 0e23 863c c2d5 04bd 1213 523d
000001e0: 54f5 98bc 5b21 93bd bb6f 51bd 0112 cf3d
000001f0: e256 a1bd 5699 41bd 30bc 493d 6e27 0d3e
00000200: 602d ca3d 9e87 ecbb 6484 723d 168c 49bc
00000210: c150 00bc 2b38 553d a061 98bd 7b27 043d
00000220: 5ee4 15bd 5757 e43b 94f7 aabd 7383 50bc
00000230: 8891 a23c ceab 4e3d eea6 6f3d d72c dabc
00000240: 7742 bebd 00de 63bb 895e f1bd 0713 de3c
00000250: b77c 3d3e 832f d23d f05e 24be b057 62bd
00000260: a352 aebc f272 d53c 5ffc c33d d324 243d
00000270: bf4f 82bd f053 823d 7473 9c3b 1f39 cebd
00000280: 6ea8 b2bd 4603 c93d 1771 7f3c 0a67 2d3d
00000290: bff9 233d bcf8 173e b105 263d cdf2 f23c
000002a0: 44cd 133b b17f 8dbd 78c9 f4bb 771d be3d
000002b0: 4626 953d 35a9 a3bc f25e ef3c 05a5 85bd
000002c0: eecb b43d 0b8f b9bd d3d9 1dbe 59f9 5e3b
000002d0: 2b4b 793d e6f5 a8bd d575 093d 49bc 64bb
000002e0: 84f0 d3bc 961d 3bbd 5999 c83c 7c70 4cbb
000002f0: 061f c7bd cdf8 92bd d719 c0bc a8d1 01bc
00000300: c01f 313b b89e 273d 56e5 8b3d 1fc9 363d
00000310: f55f 863d 0412 1b3e 0480 8bbc 7555 47bc
00000320: 440c bb3c 4631 5bbd ae68 7abd 0821 1b3c
00000330: 3361 1f3c 19ad 8fbb df2d 893d f32f eb3b
00000340: 39f9 a03d 8559 81bd 8410 98bd 687e b83d
00000350: 1480 76bb 6a8c 09bd 0427 c1bd e724 5bbd
00000360: a099 313d e94c dcb9 eef5 d03d 967e 92bd
00000370: 7f98 313d 672d 203e ea18 5cbc e20e cfbd
00000380: 7801 3e3d d1c8 e0bc a4af c53d a9cb 2b39
00000390: 0a3c 22bc 50f1 69bd 3926 dcbd 900b a2bd
000003a0: 73b0 9dbd e729 82bd 4a34 bd3c 91b3 ca3c
000003b0: d80c 493c f0d0 2b3e f9c2 f93d cf8d 0ebd
000003c0: 80ba 3abd af4a 45bc 0d90 39bd 68fb 2f3d
000003d0: 62b4 5f3d 98c0 d3bd f647 a9bd 115f f5bb
000003e0: 9d0d 7f3c c270 adbd ac86 93bd ac49 0c3d
000003f0: 3b2e cfbd f250 f53a 027c 85bd ad6f 103d
0.062731914 -0.028956732 0.014208292 -0.02647724 -0.027024513 0.06377589 0.116768025 -0.023424638
0.0255935 -0.01539548 0.050377853 -0.0026120986 -0.02470195 -0.024611289 -0.090243645 0.0131306015
0.010130015 -0.05614595 0.001641865 -0.08737977 0.082744345 -0.07531039 -0.018280234 0.01135953
0.037528403 -0.040203106 -0.15146081 0.00567167 -0.021478077 0.019608553 0.15769258 0.016113533
-0.03319687 0.029979954 -0.08634398 0.04795802 -0.04396539 0.0062115476 0.051450808 -0.006273165
0.030550955 -0.06328837 0.040896166 -0.002932112 0.027802933 0.021346293 -0.047785364 0.020814463
-0.0038381272 -0.021063711 -0.02468512 -0.052181344 0.028358188 0.016384257 -0.040219415 0.03647482
-0.05310425 0.039852016 -0.014009342 0.05424392 -0.0050386363 0.034861695 -0.002998561 -0.07761495
-0.03933198 -0.00934401 -0.16117716 0.0060097007 -0.0084344465 0.04443656 -0.045624692 -0.05898075
-0.11794681 -0.114149354 -0.049628764 -0.03759119 0.04751017 0.01904785 0.028137857 -0.16518125
0.046475105 -0.014732411 0.11735481 -0.023748973 0.028906723 0.010194804 -0.051439133 0.025614308
0.02214766 0.04631405 0.0012668838 0.0051527065 0.03613537 0.08501208 0.053936172 0.060462873
0.10485313 0.032148328 0.07693111 -0.05684597 0.07066383 -0.08860583 0.0152653055 -0.01326314
0.07122838 -0.018439092 -0.034259025 0.069655605 -0.028772125 -0.015983578 -0.14397798 -0.08271541
0.020094788 0.021361036 -0.0047167195 0.008266735 -0.0026467254 0.016374137 -0.032430418 0.051287718
-0.018671669 -0.071840964 -0.051131945 0.10110856 -0.078779 -0.047265373 0.049251735 0.13784572
0.09871936 -0.0072183153 0.05920829 -0.0123014655 -0.007831753 0.05205552 -0.074404955 0.032264214
-0.03659474 0.0069684195 -0.08348003 -0.012726652 0.019844785 0.050456814 0.058508806 -0.02663271
-0.09290021 -0.0034769773 -0.11785609 0.027108682 0.18504606 0.102629684 -0.16051841 -0.055259407
-0.021279639 0.026055787 0.0956962 0.04007418 -0.063628666 0.06363666 0.0047745053 -0.10069489
-0.08723532 0.098150775 0.015590928 0.042334594 0.0400331 0.14840978 0.04053277 0.029656792
0.0022552768 -0.06909121 -0.007470306 0.09282964 0.07282691 -0.019978145 0.029220078 -0.065256156
0.08827959 -0.090604864 -0.15415125 0.0034023135 0.0608627 -0.082500264 0.03355964 -0.0034902266
-0.025871523 -0.045682512 0.024487184 -0.0031194976 -0.09722714 -0.07176361 -0.023449821 -0.007923521
0.002702698 0.04092285 0.06830852 0.044625398 0.06561271 0.15143591 -0.017028816 -0.012166371
0.022832997 -0.053513788 -0.061134987 0.0094683245 0.009727764 -0.0043846485 0.06698202 0.007177347
0.078600354 -0.063159026 -0.07425025 0.09008485 -0.0037612962 -0.033581175 -0.0943127 -0.05350199
0.0433594 -0.00042018972 0.10203157 -0.071530506 0.043358322 0.1564232 -0.013433674 -0.101102605
0.04638812 -0.027439507 0.096526414 0.000163837 -0.00990201 -0.0571149 -0.10749478 -0.079123616
-0.07699671 -0.063556485 0.023096222 0.024743827 0.012271129 0.16778922 0.12195391 -0.034803208
-0.045588017 -0.012041732 -0.045303393 0.04296437 0.054615386 -0.10339469 -0.082656786 -0.0074881394
0.0155672105 -0.084687725 -0.07203421 0.034249946 -0.1011624 0.001871614 -0.06517793 0.035262752

conv2.bias f4 [64]
00000000: df6f a1bc 1046 04bd eeca ee3c 8a66 e638
00000010: 7bfb db3c 00e9 e43b de72 903c a416 adbc
00000020: 2e97 bf3c ba4e 9c3c fb42 03bc 8bb6 26bd
00000030: 0fcf 80bc 3162 4c3c 33da 203c 2058 063d
00000040: 9462 713c 80ec d83c bb61 efbb dfcb b2bc
00000050: 66ad c23c 5919 86bc cbbf 353d 0dd1 d9bc
00000060: d851 f83c ce3c e6bc b63c 21bc 2748 0d3d
00000070: b72a a6bc a6a0 133d 499d 72bb 0dd2 b73c
00000080: 5e75 22bd 79e6 2ebd 8272 9abc b172 63bb
00000090: f4ba 25bd d27e 053d f6a4 8fbc 61b0 d2bc
000000a0: 9325 2a3d c0b9 5b3c 5283 97bc df42 fcbc
000000b0: c9b6 1fbd 9b18 dc3c f9b2 d53c 3328 13bc
000000c0: 6c8d ecbb dd4e 17bc be1a cb3c e1fd 17bd
000000d0: ba03 bb3a bae7 25bd 94ac e6bc e4bb b63c
000000e0: e590 0cbd dd4a 593c 7319 783c f683 f43c
000000f0: bf1d 22bc 5781 26bc 105b 8a3c e678 50ba
-0.019706665 -0.03229338 0.029149499 0.00010986354 0.026853314 0.0069857836 0.017632898 -0.02112896
0.023387518 0.019080509 -0.008011575 -0.04070143 -0.015723733 0.0124745825 0.009817648 0.032798886
0.0147329755 0.02647996 -0.0073053516 -0.021825729 0.023764323 -0.016369509 0.04437236 -0.026588941
0.030312464 -0.028105166 -0.009841135 0.034492638 -0.02028404 0.03604188 -0.0037020019 0.022439027
-0.03966271 -0.042700265 -0.01885343 -0.0034705813 -0.040461496 0.03259165 -0.017534714 -0.02571887
0.04153974 0.0134109855 -0.018495236 -0.030793605 -0.038992677 0.026867202 0.026086317 -0.008981752
-0.0072190072 -0.009235111 0.024793025 -0.037107352 0.0014268078 -0.040504195 -0.028158464 0.02230639
-0.03431787 0.013262478 0.015142786 0.02984808 -0.009894787 -0.010162673 0.016889125 -0.00079525856

conv3.weight f4 [32, 64, 3, 3]
00000000: 4e1e fd3d 726a 7a3c 4747 113d 2e89 6fbd
00000010: d4fe 263c ab1d 63bd a80e 543e eed7 54bc
00000020: e8d1 033c 840c 723c fade e4bd 6ed7 5e3c
00000030: bbd6 84bd ba15 25bd 6aa5 13bd 1936 f4bb
00000040: 5c44 e43d fe61 1ebd 48d0 9b3d a059 61bb
00000050: 5303 743d 503e 2abd 3ff1 b43b ec50 1b3d
00000060: 8f2e c63d b22b aabd e51a 08be d378 61bc
00000070: a4d5 f83c ded9 81bd 30fd d33d 3bd2 72bc
00000080: 2652 75bd b1f7 43bc 95b7 23bc 756e 0e3e
00000090: 7d72 7bbd 6a98 c23c b6dd 9bbd a7af 71bd
000000a0: edaf 2c3d 3758 fb3b 438a 73bd 85a5 afbc
000000b0: 2121 823c c7b2 8fbc 3070 1abe 4701 083d
000000c0: a65d 59bd 102c b53d 452f 0439 6c60 653b
000000d0: 37cd a33c 6ee1 9f3c 0558 163d 6aff 1c3d
000000e0: 3a8e a8ba 8dc6 04bd 15ef 2c3d cde2 a3bd
000000f0: d097 953d 2a3a 71bc 5207 3cbc d720 6a3c
00000100: 686d 533d 8cae a53d 18e1 933d 0531 7cbb
00000110: 8875 193a b8d9 88bc 5ea5 5bbd 50eb 03bd
00000120: ed46 8c3d 938d 81bd de25 7dbd 4329 8a3d
00000130: 917e 48bd a449 053e 01e8 193d 6cb4 b8bd
00000140: 77f9 ecba 500f 593d 2167 9c3c 8b7c d9bd
00000150: 6ec7 0abd a925 0ebc f611 79bd e42f 2ebd
00000160: 6472 79bd 6293 e23c e3ee 9e3c 7312 d4bd
00000170: b0e1 38bb 84c5 893c bd2b b93b ff9a 673c
00000180: 9af2 17be 2b29 66bd 284a 5b3d b680 8ebd
00000190: 21ca 7bbd 1229 bdbd 2290 06bd b29f 083d
000001a0: b018 ebbc 2eff 8abd ef7d a4bd f165 f23d
000001b0: c5bf 343d 511f 16bd 0d39 f5bc 5de5 8f3c
000001c0: 54d4 913c ecb2 053e 68c9 1abc 8c41 d43d
000001d0: 642a 7abc c90b 1bbd 66b0 113d f50d 1fbd
000001e0: 7071 3d3d bba8 e33c 1ab1 f7bc b49b adbd
000001f0: ee33 d7bd ad30 29bc 33d8 17bd 2e12 913d
00000200: 7ca4 3cbd fae0 88bd cf17 aabd 0719 933d
00000210: 3ab1 093d e352 b3bd b75c 8cbb 0ab8 cabd
00000220: 8d48 3f3d 21e4 63bc 77ae 4abd 8dc3 f8bd
00000230: 25bc b83c 7426 e1bc 857b 403d 5cf8 afbd
00000240: b565 0f3c 43fb e33d 115a c9bc 66ec aa3d
00000250: 614a f03d 92d1 9bbd a181 aabc 2099 dd3d
00000260: 8a62 67bc e3a7 9abc da8f fabc a192 5fbc
00000270: 3fd2 59bd 6780 b6bd a70c b4bd 8abe 083c
00000280: d5f8 d1bd 1797 e5bc b6c6 583d 5c5e 91bb
00000290: bfe5 8d3c 69be 64bd 34bc 6abd 3140 a4bc
000002a0: d140 5c3c 7829 c2bd b8aa 633c e7ae f43b
000002b0: f07d a8bd f357 8fbd 49c4 0cbd 3f02 c9bc
000002c0: 25d3 0fbc 7941 98bc 9d0b 043d 89ff 973c
000002d0: 27c7 923c 5e94 103d e0ae 77bc d849 0b3b
000002e0: 5976 b4bc 37d1 a0bd ffe5 ec3c d138 26bd
000002f0: 9958 22bd 7237 2abd 014c 5c3d b024 a43d
00000300: cbf7 e4bc b444 c1bd 424e 333d 06c9 dabd
00000310: 28db 813b af37 efbd 6bfe 04ba cd7e 6abd
00000320: a56e 4a3d e3e5 d7bc 5994 083c 527d c73d
00000330: 0e74 9abc 509b c5bc 7505 af3c 0d28 f93b
00000340: 0a01 bc3b cb2b 14bd 31bc 9dbd e5c2 683c
00000350: d75f 12be 8b5c 76bb 0dbb c33b 814c 44bd
00000360: 78f6 c7bc bcf0 123d 9c2a 293a 5611 103c
00000370: 3644 8cbc 86d1 443b ca9a ac3d b890 f3bc
00000380: 13c6 b03c b88d 033d 4acf 89bc 9cca 233d
00000390: ab47 a83a a9ac 05bd 7461 923d c9af 93bd
000003a0: 82ec 17bc ea1d 5ebc 0de7 3abc ee75 6d3d
000003b0: f1db d3bc 49f9 c5bd a409 55bd d9bb 1ebd
000003c0: fa06 92bb 030b 77bd f7f1 cc3c ffac 033d
000003d0: e7df 0abd cafd 2b3b bd39 833d 756e 12bd
000003e0: 7a9a 323d 85fe 4a3d 1a4a d5bb 6b02 db3c
000003f0: 3742 af3d da0e febd b9c8 913d 4baa e6bc
0.12359296 0.015284168 0.035468366 -0.058480434 0.010192592 -0.055448215 0.20708716 -0.012990935
0.008045651 0.014773492 -0.11175342 0.013601167 -0.06486269 -0.040303923 -0.036046423 -0.007452738
0.11145851 -0.03866767 0.07608086 -0.0034385696 0.059573483 -0.041563332 0.005521923 0.03791897
0.09676849 -0.083091155 -0.1329151 -0.013761717 0.03037531 -0.06340383 0.10351026 -0.014820631
-0.059892796 -0.01196091 -0.0099925 0.13909324 -0.06138848 0.023754317 -0.076106474 -0.059005406
0.042159963 0.007670428 -0.05945803 -0.02144123 0.015884938 -0.017541302 -0.15081859 0.033204343
-0.053067826 0.08846295 0.0001260611 0.00350001 0.019995315 0.019516673 0.036705036 0.03832952
-0.001285977 -0.032415915 0.042220194 -0.08002243 0.073043466 -0.01472334 -0.011476355 0.014290056
0.05161801 0.08089933 0.072206676 -0.0038481366 0.00058540003 -0.016705379 -0.053624503 -0.032206833
0.068494655 -0.06325831 -0.06180369 0.06746151 -0.048948828 0.13016373 0.03757477 -0.09018788
-0.0018079717 0.05299312 0.019092144 -0.10619458 -0.033881597 -0.008675971 -0.060808145 -0.04252614
-0.060900107 0.027658168 0.01940102 -0.103550814 -0.0028210692 0.016817816 0.005650966 0.014136075
-0.14838639 -0.056191605 0.053537518 -0.069581434 -0.061472062 -0.09236349 -0.0328523 0.033355422
-0.028698295 -0.06786953 -0.080318324 0.1183585 0.0441282 -0.03665096 -0.02993443 0.017565424
0.017801441 0.13056535 -0.009447433 0.103640646 -0.015268896 -0.037853036 0.035568617 -0.03883167
0.04625076 0.027790418 -0.030235816 -0.08476964 -0.10507952 -0.010326547 -0.037071418 0.070835456
-0.046055302 -0.06683536 -0.083053224 0.07182508 0.033616282 -0.08756044 -0.0042835134 -0.09898384
0.04670005 -0.013909371 -0.04948279 -0.12146673 0.022550652 -0.027484156 0.046992797 -0.08592293
0.008752276 0.11131909 -0.02457908 0.08345871 0.11732937 -0.07608332 -0.020813765 0.10820222
-0.014122615 -0.018878883 -0.030586172 -0.013645799 -0.053179022 -0.089112096 -0.08791476 0.008346209
-0.10252539 -0.028026147 0.05292388 -0.0044362973 0.017321466 -0.05584565 -0.05730839 -0.02005014
0.013443188 -0.09480566 0.013895683 0.007467139 -0.08227146 -0.06999197 -0.03436688 -0.024537204
-0.008778368 -0.018585907 0.032237638 0.018554466 0.017917229 0.035297744 -0.015117377 0.002125373
-0.022029089 -0.078524046 0.028918264 -0.040581528 -0.039635275 -0.041556783 0.05378342 0.0801481
-0.027950188 -0.09436932 0.043775804 -0.106828734 0.003962893 -0.11680543 -0.00050733116 -0.057249833
0.049421925 -0.026354736 0.00833615 0.097407 -0.018854167 -0.02412191 0.021364907 0.0076036514
0.0057374286 -0.036174577 -0.0770191 0.014206623 -0.14294372 -0.003759178 0.005973226 -0.047924522
-0.024409518 0.035874113 0.00064531877 0.008793196 -0.01712237 0.0030032112 0.08427961 -0.029732093
0.021578824 0.032117575 -0.016822476 0.039988145 0.0012838742 -0.032635365 0.07147494 -0.07211263
-0.009272696 -0.013556937 -0.011407626 0.057973795 -0.025861712 -0.09666688 -0.052011147 -0.038753364
-0.004456398 -0.060313236 0.025017722 0.032147404 -0.033904936 0.00262438 0.06407497 -0.03574987
0.04360435 0.049559135 -0.0065090777 0.026734551 0.08557551 -0.124051765 0.07118363 -0.028157374

conv3.bias f4 [32]
00000000: d126 d7bc 37db 97bc ae46 1c3b 330c 14bd
00000010: 64fd 0fbd fe99 073d 5af1 473b a85b 03bd
00000020: 7547 3fbc 697e efbc b792 14bc 0dd8 e5ba
00000030: d3e6 1b3d 6f82 0b3c c617 a5bc d308 6d3b
00000040: 22d7 363a 5a47 93bb 4ec7 e0bc 59fd 0d3d
00000050: 772a 403d bf7d f8ba c7b9 10bd 7427 f6bc
00000060: 077e 443c 1361 943c 41a9 a93b b3e0 7bbc
00000070: 1f1e 99bb 4877 a93c 8801 143d 3d48 b3bb
-0.026263626 -0.018537147 0.002384584 -0.036144447 -0.03515376 0.033105843 0.0030508847 -0.032069832
-0.0116747515 -0.029235082 -0.009068183 -0.0017535702 0.038061928 0.0085149845 -0.020152938 0.003616859
0.00069748063 -0.0044945898 -0.027438786 0.03466544 0.046915498 -0.0018958374 -0.03533342 -0.03004811
0.011992938 0.018112695 0.0051776473 -0.015373397 -0.00467278 0.02068676 0.036134273 -0.005471258

conv4.weight f4 [4, 32, 3, 3]
00000000: 44ca 633c b515 1c3d 21a3 c7bc 0274 55bd
00000010: 1b39 ecbc 8b51 38bd cb89 b03c 7840 883c
00000020: e8cc a4bc 0426 90bd d13c d33c 0a66 16bd
00000030: 3629 2f3c 9c4b dd3d 67fb bebc 6106 063d
00000040: 6aa4 bdbd aef3 cdbb c836 953c 8787 173c
00000050: 9c2c 053e bc66 353c 093d f43c 0fa9 95bd
00000060: ec46 193d b2a4 da3d 54d0 b6bd 2319 5abd
00000070: 93f2 053d 6460 443b 05e7 0dbc 459c bb3d
00000080: c9b1 a93d 8728 a4bd 4d58 8abd 46ae 553d
00000090: d8bf 2abd aad0 c03c 8fd9 7d3b c2ce d3bd
000000a0: ba5f ee3d 534d e9bc 9ae7 adbd 379c ab3c
000000b0: 1f76 5d3d ccc5 3b3c ce9a 883d 3827 8d3a
000000c0: 8d36 06bd 829f 4bbd d2df 46bd c21e 0fbd
000000d0: e525 993d a459 003c 6efd 3fbd b0ae 50bb
000000e0: 16d2 ebbd 1bd0 723c 76f6 093c 518c 77bd
000000f0: cba3 cb3d 079a 1b3d 0be5 413b 9e65 52bd
00000100: 0b18 09bd 3f7b c83c 5052 923c f985 943d
00000110: f28f ec3a 40e7 ae3c c599 0e3d 4b26 833d
00000120: 7d86 703c ca2b 47bb 5fdc 00bd b7b4 ee3d
00000130: c5f7 b33c 1860 ca3b 7f42 edbb 77c4 c33c
00000140: cd06 e9bb 6446 32bd d2d8 7dbd 094e 9ebc
00000150: 1fce 8b3c 42a7 173e 00bc 78ba 96dc 273d
00000160: e465 61bb 888d 80bc 159e 8bbd edf6 b03d
00000170: 359c 9d3d ad02 c83c 9b87 b63d 7873 b13c
00000180: 597d 88bd 4735 b0bd 8074 9dbd 34e7 b9bd
00000190: 3a81 3bbd 1cc1 253d 83e8 5cbb 0289 fdbc
000001a0: 0b6d 583d 8c3e 343b defb 04bd 120f 4ebd
000001b0: 0a20 34bc 5728 7f3d c72c 42bd ca75 e23c
000001c0: eab2 c3bd f29c 183d 3f68 e9ba d70e a7bd
000001d0: ce95 bb3d 3158 f03c 52d0 a2bc afd7 313d
000001e0: 10c8 4cbc 65c1 8dbd c638 d7bd cb70 19bd
000001f0: 4281 11bc 9083 5b3d 154c 7c3c 238b a13c
00000200: f77c 183e f44b 5f3a 4856 5abd ba9e fb3d
00000210: e556 023e 4633 e3bb 8463 b5bc cfe0 1fbd
00000220: 5fd3 6abd 6b6f 063d bfff a1bd e034 98bc
00000230: 0750 c43b 3702 0b3e 4c70 febc 1217 233d
00000240: e267 f4bc b880 83bc 6584 27bd dbfe 1d3e
00000250: 2aca 913c b8d6 cd3c 5bf5 1ebe a388 e9bc
00000260: ff4e 4e3d a9b4 32bd b725 583d 4401 263b
00000270: 7edb b6bc c6bf 913c 2368 d8bb 94fe 74bd
00000280: 6071 96bd 887c 713d 0853 36bc 3a6c 79bc
00000290: 45d9 9a3d 10b4 64bd 7ecd 643d d800 62bd
000002a0: ceb2 e33d a9df 403c f30c cabd 62d6 bb3d
000002b0: 06c6 873d e885 b13c ea9b e2bc f9fa ddbc
000002c0: 2475 b0bb 91a2 92bd f657 08bd d24a 433c
000002d0: efd7 923c e026 203c 3198 62bd da26 693d
000002e0: d51b 683d 170e 09bd 582d 7abd a8e1 b7bd
000002f0: 1704 41bc 3b8d 763d 2f32 333d 9360 9cb9
00000300: d3ff 1e3e 4bba f33d 93fc ad3d b089 70bc
00000310: 131d 60bd df5c 0bbd 8101 a33d 9c16 733d
00000320: 891d 6b3b 64da 0f3c 8687 1a3d 40d2 be3d
00000330: 0178 75bd 8bde 87bd de3c d6bb 85c0 4c3d
00000340: 4812 b23d 19bb 56bd 142c cf3c 671c db3d
00000350: fad7 98bd 2e5c 963b 0791 f4bb a984 86bd
00000360: 4c1a a73c 3b99 f8bc def5 cebc 60a3 c63b
00000370: 7e07 85bd bbb9 bb3d 6db0 85bc 0a23 d33c
00000380: eb99 28bd a63c 3c3d 8813 b73d 2ff7 b2bb
00000390: 2daa 13bd 6430 973d 853e c43c e380 c0bc
000003a0: e21d 083d 74f3 bc3c ad98 9fbb 0af3 ea3a
000003b0: 304f b73c 36ec 68bd b032 da3c 76af a63d
000003c0: 4ec0 35bd dab2 3cbc 07d5 6e3d 0645 c23c
000003d0: 1903 1c3d 15eb 57bd 14d0 3bbd a51e b2ba
000003e0: f20b 473c 02e7 173d b70e a53d 9484 f83c
000003f0: 1bf3 6a3c 069a af3d 6440 fdbd 2792 5fbc
0.013903204 0.03810664 -0.024369778 -0.052112587 -0.028835824 -0.04499964 0.02155008 0.016632304
-0.020117238 -0.07038501 0.025785835 -0.036718406 0.010690978 0.10805437 -0.023313237 0.032720927
-0.09259875 -0.0062851524 0.018214598 0.009248621 0.13005298 0.011071857 0.02981426 -0.07307636
0.037421152 0.106759444 -0.08926454 -0.05324663 0.03270204 0.002996468 -0.008661036 0.091606654
0.08285863 -0.080155425 -0.06755123 0.052168153 -0.041686863 0.023536999 0.0038734411 -0.1034217
0.11639352 -0.028479254 -0.0849144 0.020948512 0.054067727 0.011460733 0.06670152 0.0010769134
-0.032766867 -0.049712665 -0.048553295 -0.034941442 0.07477931 0.007833872 -0.04687255 -0.0031842403
-0.1151468 0.014820124 0.008420577 -0.06043655 0.099433504 0.03798869 0.0029585983 -0.05136644
-0.033470195 0.02447283 0.017861515 0.07252116 0.001804827 0.021350503 0.034814615 0.06403788
0.014680502 -0.003039109 -0.031460162 0.11655562 0.021968732 0.006176006 -0.007240593 0.023897393
-0.0071114064 -0.04352416 -0.061974354 -0.01932432 0.01706606 0.14809898 -0.00094884634 0.04098185
-0.0034393007 -0.015692487 -0.06817261 0.08640847 0.0769581 0.024415338 0.089125834 0.021661505
-0.06664533 -0.08603912 -0.07688236 -0.090773016 -0.045777537 0.040467367 -0.0033707924 -0.03094912
0.052838366 0.00275031 -0.03246676 -0.05030734 -0.010993967 0.06229433 -0.047405984 0.027644057
-0.095556095 0.03725905 -0.0017807557 -0.08157127 0.09159432 0.029338928 -0.019874725 0.043418583
-0.0124988705 -0.06921653 -0.105088755 -0.037461083 -0.008880915 0.053592265 0.015398999 0.019719666
0.1489142 0.0008518093 -0.05330494 0.12286134 0.1272846 -0.0069336025 -0.02214218 -0.039032754
-0.057330485 0.0328211 -0.07910108 -0.0185799 0.0059909853 0.13575064 -0.031059407 0.039816923
-0.029834691 -0.016052589 -0.040897746 0.15429251 0.017796595 0.0251268 -0.15523283 -0.028507536
0.050368305 -0.043629322 0.052770343 0.0025330344 -0.022321459 0.01779164 -0.006604211 -0.059813097
-0.07345843 0.058956653 -0.011128195 -0.015223557 0.07560972 -0.055835783 0.055860035 -0.055176586
0.11118089 0.011772075 -0.09865751 0.0917175 0.06629567 0.021670297 -0.027662236 -0.027097212
-0.005385058 -0.07159913 -0.03328701 0.011919694 0.01792523 0.0097748935 -0.055320922 0.056921817
0.056667168 -0.033460703 -0.0610784 -0.089785874 -0.01178076 0.06019328 0.04374903 -0.00029826592
0.15527277 0.11900767 0.0849544 -0.014681265 -0.054715227 -0.034024116 0.07959271 0.059347734
0.0035875759 0.008780096 0.0377269 0.09317446 -0.059928898 -0.066342436 -0.0065380177 0.04998829
0.08694893 -0.052424524 0.025289573 0.10698777 -0.07463069 0.0045886254 -0.0074635777 -0.06568272
0.020398282 -0.030346503 -0.025263723 0.0060619563 -0.0649557 0.09166285 -0.016319478 0.025773544
-0.041162413 0.045956276 0.08939272 -0.0054615955 -0.036050964 0.07382277 0.023955593 -0.023498958
0.033231623 0.023065306 -0.0048704953 0.0017925214 0.022376627 -0.056865893 0.026635498 0.08138935
-0.04437285 -0.011517251 0.058308627 0.023714554 0.03808889 -0.052714426 -0.045852736 -0.0013589455
0.012148844 0.03708554 0.08059447 0.030336656 0.014340187 0.085742995 -0.12365797 -0.013645685

conv4.bias f4 [4]
00000000: 747e 293d 7791 543d 759b 173d 12a8 4d3c
0.04138036 0.05189654 0.03701349 0.012552278
