CUDA-EP_120FPS/ycrcb-bgr-sr-2x-only1slice-bicubic-FP16.onnx (onnx, 122098 bytes, 10 tensors)

conv.weight f2 [3, 3, 1, 1]
0	0x2f4c	0.114
1	0x38b2	0.587
2	0x34c9	0.299
3	0xad34	-0.0813
4	0xb6b2	-0.4185
5	0x37ff	0.4998
6	0x3801	0.5005
7	0xb54c	-0.331
8	0xb165	-0.1686

conv1.weight f2 [64, 1, 5, 5]
0	0xabe2	-0.06158
1	0x3080	0.1406
2	0xaa8e	-0.0512
3	0xa6b9	-0.02626
4	0x31f3	0.1859
5	0x29ee	0.04633
6	0xb4d8	-0.3027
7	0xa098	-0.00897
8	0x993c	-0.002556
9	0xa933	-0.04062
10	0xb20e	-0.1892
11	0x2652	0.02469
12	0xb07c	-0.1401
13	0xa8bd	-0.03702
14	0x341f	0.2576
15	0x2e7d	0.1014
16	0xaec7	-0.1059
17	0xb2c6	-0.2117
18	0x24b3	0.01836
19	0x3203	0.1879
20	0x3055	0.1354
21	0x2c2e	0.0653
22	0x34b4	0.294
23	0x2dd1	0.0909
24	0x307f	0.1405
25	0xb099	-0.1437
26	0xabe6	-0.0617
27	0x2c60	0.06836
28	0xb084	-0.1411
29	0x2ee0	0.1074
30	0xb41c	-0.2568
31	0x3414	0.255
32	0xa776	-0.02914
33	0x363b	0.3894
34	0x2afa	0.0545
35	0xad8e	-0.0868
36	0x30ec	0.1538
37	0x3321	0.2228
38	0x9e6a	-0.006264
39	0xad06	-0.0785
40	0x2c74	0.0696
41	0xa53d	-0.02046
42	0x3086	0.1414
43	0xb19a	-0.175
44	0xa163	-0.01052
45	0x2ac4	0.05286
46	0xac39	-0.066
47	0x2fb5	0.1204
48	0x3492	0.2856
49	0x22f8	0.01361
50	0x3623	0.3835
51	0xb137	-0.163
52	0xaef5	-0.1087
53	0x2f98	0.11865
54	0xb308	-0.2197
55	0x305e	0.1365
56	0xacd6	-0.07556
57	0x3128	0.1611
58	0x26af	0.02611
59	0x2f6c	0.11597
60	0x2ed7	0.1069
61	0xb300	-0.2188
62	0x2ff8	0.1245
63	0xa667	-0.02501
64	0x3865	0.5493
65	0x3597	0.3494
66	0x2f07	0.1098
67	0xb2d5	-0.2135
68	0xaddc	-0.09155
69	0xabcd	-0.06094
70	0xb157	-0.1669
71	0x2d69	0.08453
72	0xa61c	-0.02386
73	0x2d53	0.0832
74	0xaae2	-0.05377
75	0x25e5	0.02303
76	0x3330	0.2246
77	0xb203	-0.1879
78	0xb08f	-0.1425
79	0x3476	0.2788
80	0x241e	0.01608
81	0x342c	0.2607
82	0xa610	-0.02368
83	0x3470	0.2773
84	0xafb1	-0.1202
85	0xb148	-0.165
86	0x1c59	0.004246
87	0x2ff0	0.124
88	0xa781	-0.02931
89	0xa83c	-0.03308
90	0xa365	-0.01444
91	0x2341	0.01417
92	0xae09	-0.0943
93	0x33e9	0.2472
94	0x1ebc	0.006577
95	0xafe4	-0.1233
96	0x2d00	0.0781
97	0x3018	0.1279
98	0xb332	-0.2249
99	0xb437	-0.2634
100	0x218c	0.01083
101	0xb279	-0.2023
102	0x311e	0.1599
103	0xb066	-0.1375
104	0x2a0f	0.04733
105	0x26b0	0.02612
106	0xb267	-0.2001
107	0xaff9	-0.1246
108	0x34e6	0.3062
109	0xa9d2	-0.04547
110	0x35a6	0.353
111	0x30a1	0.1447
112	0x218b	0.010826
113	0x29de	0.04584
114	0x1fe4	0.007706
115	0x314b	0.1654
116	0x2072	0.00868
117	0x33c6	0.2429
118	0xada8	-0.0884
119	0xa3f4	-0.01553
120	0xafad	-0.11993
121	0xb3fe	-0.2498
122	0x24fc	0.01947
123	0xb462	-0.274
124	0x2ebe	0.10535
125	0xa201	-0.01173
126	0x35de	0.3667
127	0x2f4d	0.1141
128	0x2c82	0.07043
129	0xa99f	-0.0439
130	0xb0a8	-0.1455
131	0xb359	-0.2296
132	0x2385	0.01469
133	0xae16	-0.0951
134	0x9bf5	-0.003885
135	0x2a99	0.05154
136	0xa4a1	-0.01808
137	0xac40	-0.0664
138	0xb0d5	-0.151
139	0xa00c	-0.007904
140	0xb10a	-0.1575
141	0x3716	0.4429
142	0xb6aa	-0.4165
143	0x36a7	0.4158
144	0xb0d9	-0.1515
145	0x2225	0.012
146	0x2e6d	0.1004
147	0x3247	0.1962
148	0xa8bc	-0.037
149	0x18be	0.002316
150	0x228d	0.012794
151	0x3012	0.1272
152	0xb042	-0.133
153	0xb18f	-0.1737
154	0x35fe	0.3745
155	0xa601	-0.02345
156	0xb1d8	-0.1826
157	0x3392	0.2366
158	0x2408	0.01575
159	0x34c9	0.299
160	0x2e6b	0.1003
161	0xb427	-0.2595
162	0x2e00	0.09375
163	0x338d	0.236
164	0x2b50	0.05713
165	0xb03d	-0.1324
166	0x3466	0.275
167	0x326e	0.2009
168	0x328c	0.2046
169	0x324d	0.1969
170	0x31e2	0.1838
171	0x31ba	0.179
172	0xad9f	-0.0878
173	0xa7c7	-0.03038
174	0x2caa	0.0729
175	0xb5c3	-0.36
176	0x32d8	0.2139
177	0x2fa8	0.1196
178	0xaf04	-0.1096
179	0x3019	0.128
180	0x34e4	0.3057
181	0xa973	-0.04257
182	0xb4c9	-0.299
183	0xad49	-0.0826
184	0x3380	0.2344
185	0x3487	0.283
186	0x3051	0.1349
187	0xac0b	-0.0632
188	0x2c79	0.0699
189	0x229f	0.01293
190	0x32c5	0.2115
191	0xb565	-0.3372
192	0x335c	0.23
193	0x31bf	0.1796
194	0xb4a9	-0.2913
195	0x2d57	0.08344
196	0xb284	-0.2036
197	0xb17d	-0.1715
198	0xa695	-0.02571
199	0x29a0	0.04395
200	0xa915	-0.0397
201	0x1c7b	0.004375
202	0x2abc	0.0526
203	0xb08f	-0.1425
204	0x28dd	0.038
205	0x1dfa	0.005836
206	0x3453	0.2703
207	0x2ea8	0.104
208	0xb242	-0.1956
209	0x317a	0.1711
210	0xb5f9	-0.3733
211	0x9878	-0.002182
212	0xa97d	-0.04288
213	0x3481	0.2815
214	0x2b84	0.05872
215	0x34b8	0.295
216	0x3272	0.2014
217	0x2d86	0.0863
218	0xb44a	-0.268
219	0xb0f4	-0.1548
220	0xac89	-0.07086
221	0xb2d6	-0.2136
222	0xa490	-0.01782
223	0x32eb	0.2162
224	0xa41d	-0.01607
225	0xa9b2	-0.0445
226	0xb3fa	-0.2493
227	0x2d88	0.0864
228	0x2bcf	0.061
229	0x2f97	0.1186
230	0xacde	-0.07605
231	0x9cd0	-0.0047
232	0xb5e4	-0.3682
233	0xad01	-0.0782
234	0x2b90	0.05908
235	0xa802	-0.0313
236	0x27ae	0.03
237	0x9c00	-0.003906
238	0x8ede	-0.0004191
239	0x363a	0.3892
240	0xaf31	-0.11237
241	0xab38	-0.0564
242	0xb125	-0.1608
243	0xa6b9	-0.02626
244	0xb52a	-0.3228
245	0xafd0	-0.1221
246	0x3359	0.2296
247	0x2ea2	0.10364
248	0x2bf2	0.06207
249	0x9d7c	-0.005356
250	0x3060	0.1367
251	0x3031	0.131
252	0x2e3e	0.09753
253	0x2206	0.011765
254	0xb48d	-0.2844
255	0x31ff	0.1874

conv1.bias f2 [64]
0	0xaa0d	-0.04727
1	0x2847	0.03342
2	0x230e	0.01378
3	0xa652	-0.02469
4	0x300e	0.1267
5	0x2c22	0.0646
6	0xb119	-0.1593
7	0xabb8	-0.0603
8	0x1bd1	0.003817
9	0x2f9c	0.1189
10	0x30c5	0.149
11	0x296e	0.04242
12	0x3217	0.1903
13	0x3259	0.1984
14	0x2818	0.03198
15	0x3079	0.1398
16	0x2da9	0.08844
17	0x26ba	0.02628
18	0x30e2	0.1526
19	0xa98e	-0.0434
20	0xb111	-0.1583
21	0xad26	-0.08044
22	0x2f24	0.1116
23	0xb057	-0.1356
24	0x2d97	0.08734
25	0x2867	0.0344
26	0xb208	-0.1885
27	0x28d8	0.03784
28	0x2c4d	0.0672
29	0x97c8	-0.0019
30	0x2da2	0.088
31	0x99e6	-0.00288
32	0xa522	-0.02005
33	0xa4a3	-0.01811
34	0xb040	-0.1328
35	0xa1e0	-0.011475
36	0x95a0	-0.001373
37	0x2c62	0.0685
38	0xa8af	-0.0366
39	0x2f75	0.1165
40	0xa506	-0.01962
41	0x2a93	0.05136
42	0xa20e	-0.011826
43	0x2fcd	0.1219
44	0x1fa5	0.007465
45	0xabf5	-0.06216
46	0xaac1	-0.05276
47	0x2fbd	0.1209
48	0x2db7	0.0893
49	0xb035	-0.1315
50	0xa92f	-0.0405
51	0x2fc3	0.1213
52	0x2cd1	0.07526
53	0x2154	0.01041
54	0xa859	-0.03397
55	0x306c	0.1382
56	0xb02e	-0.1306
57	0x305e	0.1365
58	0xabe9	-0.0618
59	0x2d39	0.0816
60	0xa45f	-0.01707
61	0x2c15	0.0638
62	0x2cd3	0.0754
63	0xa54a	-0.02066

conv2.weight f2 [64, 64, 3, 3]
0	0x2831	0.03275
1	0x20bd	0.009254
2	0xa9de	-0.04584
3	0x262b	0.0241
4	0x2576	0.02133
5	0x270a	0.0275
6	0x0945	0.0001608
7	0xa563	-0.02104
8	0x2894	0.03577
9	0x2d27	0.0805
10	0x2ad1	0.05325
11	0x2b83	0.0587
12	0x9bb3	-0.00376
13	0x28ca	0.0374
14	0x95ef	-0.001449
15	0xab2a	-0.05597
16	0x2f78	0.1167
17	0xa929	-0.0403
18	0x29d5	0.04556
19	0x9a03	-0.002935
20	0x273d	0.02827
21	0x9ed2	-0.00666
22	0x9bfa	-0.003895
23	0x9c0e	-0.00396
24	0x1b03	0.003424
25	0x1ec7	0.00662
26	0xae63	-0.0998
27	0xad8e	-0.0868
28	0x26d3	0.02666
29	0x2a06	0.04706
30	0xaee0	-0.1074
31	0x23f4	0.01553
32	0x95bc	-0.0014
33	0x2f09	0.1099
34	0xad93	-0.0871
35	0x2b45	0.0568
36	0xacab	-0.07294
37	0xaddb	-0.0915
38	0x2dcf	0.09076
39	0xa641	-0.02443
40	0xab5d	-0.05753
41	0xabd4	-0.06116
42	0x2d93	0.0871
43	0x2c6b	0.06903
44	0x30d8	0.1514
45	0x3131	0.1622
46	0xad8b	-0.0866
47	0x29c1	0.04495
48	0xb032	-0.1311
49	0x2ba5	0.05972
50	0xaf30	-0.1123
51	0x2c76	0.0697
52	0x2e15	0.09503
53	0x26a5	0.02596
54	0x2c72	0.06946
55	0x1929	0.00252
56	0x2386	0.014694
57	0x2a50	0.04932
58	0x2c18	0.06396
59	0xa5fb	-0.02336
60	0x2ef0	0.1084
61	0x1c68	0.004303
62	0xadd1	-0.0909
63	0x2cf8	0.07764
64	0x2fc2	0.1212
65	0x2910	0.03955
66	0xacd8	-0.0757
67	0x22a2	0.012955
68	0xae0a	-0.09436
69	0x2d5e	0.08386
70	0x2559	0.02089
71	0xabca	-0.06085
72	0xacac	-0.073
73	0x2112	0.0099
74	0xb124	-0.1606
75	0xaa2c	-0.04822
76	0xae14	-0.095
77	0x2c1d	0.0643
78	0x97d7	-0.001914
79	0xa662	-0.02493
80	0x297c	0.04285
81	0x3024	0.1294
82	0x25d6	0.0228
83	0x27e4	0.03082
84	0xa0d5	-0.00944
85	0x27d7	0.03062
86	0xa8f3	-0.03867
87	0xa088	-0.00885
88	0x2cd9	0.07574
89	0xa393	-0.01479
90	0x2abc	0.0526
91	0xae64	-0.09985
92	0x2b83	0.0587
93	0xaf7d	-0.117
94	0x2d80	0.08594
95	0x2755	0.02864
96	0x2d4b	0.0827
97	0xad11	-0.07916
98	0x2830	0.0327
99	0xa13b	-0.010216
100	0x2ec5	0.1058
101	0xa581	-0.0215
102	0xaad6	-0.0534
103	0xa7d3	-0.03056
104	0xad9e	-0.08777
105	0xabdb	-0.06137
106	0xa2d3	-0.01333
107	0x9c2e	-0.00408
108	0x23bd	0.015114
109	0x2c6b	0.06903
110	0xa21b	-0.011925
111	0x2c5a	0.068
112	0x2c3d	0.0662
113	0x30dd	0.152
114	0x1ec7	0.00662
115	0x28ba	0.03693
116	0x173b	0.001765
117	0xab11	-0.0552
118	0x1e58	0.006195
119	0x2e1f	0.09564
120	0xa306	-0.01372
121	0x2ce3	0.07635
122	0xac07	-0.0629
123	0xa5e4	-0.02301
124	0x2d4a	0.08264
125	0x9b28	-0.003494
126	0x97c8	-0.0019
127	0xadbc	-0.0896
128	0x9fb7	-0.007534
129	0xa860	-0.03418
130	0xadf8	-0.09326
131	0xaa83	-0.05087
132	0x18e1	0.002382
133	0xab3d	-0.05655
134	0x28ca	0.0374
135	0xad46	-0.0824
136	0x288d	0.03555
137	0x319d	0.1754
138	0x9c6e	-0.004326
139	0xad3c	-0.0818
140	0xa602	-0.02347
141	0xa62c	-0.02411
142	0xa80b	-0.0316
143	0x2d40	0.08203
144	0x9bfa	-0.003895
145	0xab16	-0.05536
146	0xae89	-0.1021
147	0xacf8	-0.07764
148	0xae96	-0.1029
149	0xa525	-0.0201
150	0xa36c	-0.014496
151	0xa593	-0.02177
152	0xa61c	-0.02386
153	0x28b1	0.03665
154	0x2ca7	0.0727
155	0xabbe	-0.0605
156	0x2839	0.033
157	0xac3c	-0.06616
158	0x2d1a	0.0797
159	0x2f50	0.11426
160	0x301c	0.1284
161	0xadb0	-0.08887
162	0xac6f	-0.0693
163	0x1fc0	0.00757
164	0xa2a1	-0.01295
165	0x2ce6	0.07654
166	0x9efe	-0.00683
167	0x2d7c	0.0857
168	0xae96	-0.1029
169	0xa46d	-0.01729
170	0xae7d	-0.1014
171	0x2a2c	0.04822
172	0x1d19	0.00498
173	0xa9b2	-0.0445
174	0x2d15	0.0794
175	0x1cda	0.004738
176	0x2703	0.02739
177	0xa030	-0.00818
178	0x248e	0.01779
179	0xacb1	-0.0733
180	0xaed5	-0.10675
181	0xa869	-0.03445
182	0x908b	-0.0005546
183	0x2d91	0.087
184	0x2996	0.04364
185	0x2df0	0.0928
186	0x2909	0.03934
187	0xac53	-0.06757
188	0x2c76	0.0697
189	0x99b3	-0.002783
190	0x9cd0	-0.0047
191	0x2c44	0.06665
192	0x2dab	0.08856
193	0x2159	0.010445
194	0x2df8	0.09326
195	0xae3a	-0.0973
196	0x2929	0.0403
197	0x2a16	0.04755
198	0xa257	-0.01238
199	0x2a8a	0.0511
200	0x1cb2	0.004585
201	0x1d28	0.005035
202	0x2bd3	0.06113
203	0xa011	-0.00794
204	0x2abb	0.05258
205	0x28df	0.03806
206	0x2c34	0.0657
207	0x295f	0.04196
208	0xac47	-0.06683
209	0x28bf	0.03708
210	0x2008	0.00787
211	0xac00	-0.0625
212	0x2a15	0.04752
213	0x2689	0.02553
214	0xa293	-0.01284
215	0xa033	-0.0082
216	0xa80b	-0.0316
217	0xa473	-0.01738
218	0x2612	0.02371
219	0x303b	0.1322
220	0xb271	-0.2013
221	0xb066	-0.1375
222	0xb275	-0.2018
223	0x3219	0.1906
224	0xa850	-0.0337
225	0x2bc8	0.0608
226	0xad08	-0.0786
227	0xa978	-0.04272
228	0xaa6f	-0.05026
229	0x2db2	0.089
230	0x2d13	0.0793
231	0x22e3	0.01345
232	0xacbe	-0.0741
233	0x25cf	0.02269
234	0xa6c6	-0.02646
235	0x2617	0.02379
236	0xad69	-0.08453
237	0x2b25	0.05582
238	0xa188	-0.0108
239	0xa1c7	-0.011284
240	0x29e8	0.04614
241	0xac39	-0.066
242	0xa89b	-0.03598
243	0x9c08	-0.003937
244	0x1d82	0.00538
245	0x2dca	0.09045
246	0x2b84	0.05872
247	0xaf34	-0.11255
248	0x285d	0.0341
249	0x2c61	0.0684
250	0x2b79	0.05838
251	0x2ce6	0.07654
252	0x2f50	0.11426
253	0xac08	-0.063
254	0x1b1e	0.003475
255	0x29f9	0.04666

conv2.bias f2 [64]
0	0xa5d2	-0.02274
1	0xa755	-0.02864
2	0x9f55	-0.00716
3	0x28cc	0.03748
4	0x1cae	0.00457
5	0xa9e0	-0.0459
6	0xa702	-0.02737
7	0xa89e	-0.03607
8	0xa90f	-0.03952
9	0xa81a	-0.03204
10	0x25f2	0.02322
11	0xa089	-0.00886
12	0xa665	-0.02498
13	0x2af0	0.0542
14	0x23b0	0.015015
15	0xa191	-0.01087
16	0xa94c	-0.04138
17	0x2565	0.02107
18	0x221f	0.011955
19	0x272d	0.02803
20	0xa8ea	-0.0384
21	0x22ea	0.013504
22	0x231b	0.01388
23	0x281e	0.03217
24	0x2039	0.00825
25	0xa25b	-0.01241
26	0xa6b8	-0.02625
27	0xa50b	-0.0197
28	0x2155	0.010414
29	0xa6e2	-0.02689
30	0x9a8f	-0.003202
31	0x9d8c	-0.005417
32	0x2512	0.0198
33	0xa8c8	-0.03735
34	0x1e12	0.005928
35	0x20f1	0.00965
36	0xa7b0	-0.03003
37	0xa338	-0.0141
38	0xa976	-0.04266
39	0x2931	0.04056
40	0xa672	-0.02518
41	0x9528	-0.001259
42	0xa903	-0.03915
43	0x1f84	0.00734
44	0x264c	0.0246
45	0x251c	0.01996
46	0x1cf2	0.00483
47	0x2916	0.03973
48	0x2712	0.02762
49	0x906a	-0.000539
50	0x25f9	0.02333
51	0xa305	-0.01371
52	0xa619	-0.02382
53	0x1e7a	0.006325
54	0x2930	0.04053
55	0x2424	0.01617
56	0x2321	0.01392
57	0xa84e	-0.03363
58	0x9c58	-0.004242
59	0xa48e	-0.01779
60	0x22e8	0.01349
61	0x2423	0.01616
62	0x2947	0.04123
63	0x126a	0.000783

conv3.weight f2 [32, 64, 3, 3]
0	0xa83a	-0.03302
1	0x9f4f	-0.007137
2	0xab7c	-0.05847
3	0xa980	-0.04297
4	0x2d5f	0.0839
5	0xa698	-0.02576
6	0x9bc7	-0.003798
7	0x2c46	0.0668
8	0x17cf	0.001906
9	0x2538	0.02039
10	0x2414	0.01593
11	0x2642	0.02444
12	0xa830	-0.0327
13	0xa405	-0.0157
14	0xa7d8	-0.03064
15	0xa87c	-0.03503
16	0xab85	-0.05875
17	0xada6	-0.08826
18	0xa8e0	-0.0381
19	0x27cb	0.03044
20	0xa590	-0.02173
21	0x2c2c	0.0652
22	0x2caa	0.0729
23	0x28e8	0.03833
24	0x289f	0.0361
25	0xa945	-0.04117
26	0xa86c	-0.03455
27	0x20d9	0.00947
28	0x2bbe	0.0605
29	0xaa7a	-0.0506
30	0x2c78	0.0698
31	0xa8dd	-0.038
32	0xa6a5	-0.02596
33	0xa902	-0.03912
34	0x27a1	0.0298
35	0xa943	-0.0411
36	0xa891	-0.03568
37	0xa15d	-0.010475
38	0xabcc	-0.0609
39	0x2e6c	0.10034
40	0xaead	-0.1043
41	0xa355	-0.01432
42	0xa8a1	-0.03616
43	0x2ca3	0.07245
44	0x1229	0.000752
45	0x18f4	0.002419
46	0xacc0	-0.0742
47	0xac31	-0.0655
48	0x27cc	0.03046
49	0xada8	-0.0884
50	0x9d3b	-0.005108
51	0xae05	-0.09406
52	0x2afb	0.05453
53	0x2867	0.0344
54	0x2aef	0.05417
55	0xab64	-0.05774
56	0x2749	0.02846
57	0xa6d8	-0.02673
58	0x2a10	0.04736
59	0xacef	-0.0771
60	0x1d60	0.00525
61	0xabe6	-0.0617
62	0x297c	0.04285
63	0xae7b	-0.10126
64	0x2fe2	0.12317
65	0xabfd	-0.0624
66	0xa420	-0.01611
67	0x2ed7	0.1069
68	0xa8a2	-0.0362
69	0xa76c	-0.02899
70	0xa96c	-0.04236
71	0x315a	0.1672
72	0xaafd	-0.0546
73	0xad57	-0.08344
74	0xad15	-0.0794
75	0x1eb9	0.006565
76	0xafd0	-0.1221
77	0xb158	-0.167
78	0x2c1d	0.0643
79	0x1cde	0.004753
80	0x2178	0.01068
81	0xabb1	-0.0601
82	0xabd9	-0.0613
83	0xa699	-0.02577
84	0x2af4	0.05432
85	0xad78	-0.08545
86	0x98ea	-0.0024
87	0x9843	-0.00208
88	0xad7c	-0.0857
89	0xacb0	-0.07324
90	0xa76e	-0.02902
91	0xa479	-0.01747
92	0x268c	0.02557
93	0xaa71	-0.05032
94	0x2426	0.0162
95	0x2aad	0.05215
96	0x2524	0.02008
97	0x284f	0.03366
98	0xa26b	-0.012535
99	0x94e8	-0.001198
100	0xad16	-0.07947
101	0xa58e	-0.0217
102	0x9ee3	-0.006725
103	0x2e30	0.0967
104	0xa999	-0.04373
105	0xa9a5	-0.0441
106	0x29d4	0.04553
107	0x2c87	0.07074
108	0x2a9c	0.05164
109	0xae5d	-0.0994
110	0x2641	0.02443
111	0xa934	-0.04065
112	0x9f09	-0.00687
113	0xafb0	-0.1201
114	0x98bb	-0.00231
115	0xab25	-0.05582
116	0x28e0	0.0381
117	0x111b	0.000623
118	0xa4d9	-0.01894
119	0x29bc	0.0448
120	0xa56c	-0.02118
121	0xa458	-0.01697
122	0x27cb	0.03044
123	0x22bd	0.01316
124	0x276e	0.02902
125	0x2c99	0.07184
126	0x9ab1	-0.003267
127	0x26e2	0.02689
128	0xb03f	-0.1327
129	0x9c05	-0.003925
130	0x20ab	0.00912
131	0xa9a0	-0.04395
132	0x2e11	0.0948
133	0x21ff	0.01171
134	0x2be1	0.06155
135	0xa6e5	-0.02693
136	0xa703	-0.02739
137	0xa0f0	-0.00964
138	0x2caf	0.0732
139	0xa86d	-0.03458
140	0x2956	0.0417
141	0x299c	0.04382
142	0x1419	0.001
143	0xa46f	-0.01732
144	0x2161	0.010506
145	0xa65c	-0.02484
146	0x2cf7	0.0776
147	0xac6a	-0.069
148	0x2321	0.01392
149	0xafab	-0.1198
150	0x2b9c	0.05945
151	0x1da0	0.005493
152	0xa4e6	-0.01913
153	0xadc5	-0.09015
154	0xaa48	-0.04907
155	0xa895	-0.0358
156	0x3025	0.1295
157	0xacda	-0.0758
158	0x2a41	0.04886
159	0x26bc	0.0263
160	0xa8e3	-0.03818
161	0x9903	-0.002447
162	0x2ae5	0.05386
163	0xa8e6	-0.03827
164	0xa9e0	-0.0459
165	0x2642	0.02444
166	0x2697	0.02574
167	0xa693	-0.02568
168	0x2d63	0.08417
169	0xaf2e	-0.1122
170	0x2ccd	0.075
171	0xa697	-0.02574
172	0x2356	0.01433
173	0xaabe	-0.05267
174	0x305f	0.1366
175	0xa700	-0.02734
176	0xaa58	-0.04956
177	0xac56	-0.06775
178	0x9d03	-0.004894
179	0xa9d8	-0.04565
180	0x2dbc	0.0896
181	0xa7d2	-0.03055
182	0x267c	0.02533
183	0x25d5	0.02278
184	0x264a	0.02457
185	0x94a3	-0.001132
186	0x0b32	0.0002196
187	0x2c9b	0.07196
188	0xa8fc	-0.03894
189	0x2e46	0.098
190	0x2cf2	0.0773
191	0x2e11	0.0948
192	0x1f3b	0.00706
193	0x27cc	0.03046
194	0xae6c	-0.10034
195	0x2319	0.01386
196	0xab7a	-0.0584
197	0x9a14	-0.002968
198	0xa4fe	-0.0195
199	0x991b	-0.002493
200	0x2a49	0.0491
201	0xab90	-0.05908
202	0xae7f	-0.1015
203	0x23a6	0.01494
204	0xb057	-0.1356
205	0x1e79	0.00632
206	0xa99c	-0.04382
207	0x2d42	0.08215
208	0xa3cb	-0.01522
209	0x1e49	0.006138
210	0xac3b	-0.0661
211	0xa49f	-0.01805
212	0x2c52	0.0675
213	0xad41	-0.0821
214	0xaedd	-0.10724
215	0xaa1a	-0.04767
216	0xa02e	-0.00816
217	0x2b0e	0.0551
218	0xab0f	-0.05515
219	0x2018	0.007996
220	0x2d0a	0.07874
221	0xa501	-0.01955
222	0x2130	0.01013
223	0xa10a	-0.00984
224	0xa2cd	-0.01328
225	0x2d32	0.0812
226	0xb0bb	-0.1478
227	0xa169	-0.01057
228	0x2cf3	0.07733
229	0xa2a1	-0.01295
230	0x2ddb	0.0915
231	0x2da5	0.0882
232	0xa9d2	-0.04547
233	0x2209	0.01179
234	0x26dc	0.0268
235	0x2b1a	0.05548
236	0x98e8	-0.002396
237	0x9e1b	-0.005962
238	0xacd0	-0.0752
239	0xabf5	-0.06216
240	0x2044	0.00833
241	0x21cb	0.011314
242	0xae63	-0.0998
243	0x2bfc	0.06238
244	0xad16	-0.07947
245	0x99d4	-0.002846
246	0xac65	-0.06866
247	0x2861	0.0342
248	0x2b1e	0.0556
249	0xae0c	-0.0945
250	0xac5a	-0.068
251	0xa168	-0.01056
252	0x2201	0.01173
253	0x311d	0.1598
254	0x28ed	0.03848
255	0x24fd	0.01949

conv3.bias f2 [32]
0	0x9412	-0.000994
1	0x286f	0.03464
2	0xa5da	-0.02286
3	0xa91f	-0.04
4	0x2789	0.02943
5	0xa4b2	-0.01834
6	0x277b	0.02922
7	0xa25c	-0.01242
8	0x21b0	0.01111
9	0xa34b	-0.014244
10	0x2132	0.01015
11	0x2120	0.01001
12	0xa81d	-0.03214
13	0x1583	0.001346
14	0x2101	0.00977
15	0xa467	-0.0172
16	0xa294	-0.01285
17	0xa5d1	-0.02272
18	0xa8c9	-0.03738
19	0x9e5b	-0.006207
20	0xa9d3	-0.0455
21	0x29cc	0.0453
22	0x95ad	-0.001386
23	0x2842	0.03326
24	0xa802	-0.0313
25	0x1768	0.001808
26	0x8dc5	-0.0003521
27	0x2758	0.02869
28	0xa808	-0.0315
29	0xa949	-0.0413
30	0x13cc	0.000952
31	0xa64d	-0.02461

conv4.weight f2 [4, 32, 3, 3]
0	0xa927	-0.04025
1	0x2ca8	0.07275
2	0xadde	-0.0917
3	0x283a	0.03302
4	0xa828	-0.03247
5	0x2911	0.03958
6	0xa811	-0.03177
7	0xa43c	-0.01654
8	0x2c45	0.0667
9	0x2689	0.02553
10	0x2e00	0.09375
11	0x25cd	0.02266
12	0xac1a	-0.0641
13	0xac22	-0.0646
14	0xadd9	-0.0914
15	0xa9a8	-0.0442
16	0xa824	-0.03235
17	0x2a1f	0.04782
18	0x27f4	0.03107
19	0xa12c	-0.0101
20	0x29e8	0.04614
21	0xa9f5	-0.04654
22	0x2ca4	0.0725
23	0xa121	-0.01002
24	0x26e7	0.02696
25	0x1c97	0.004482
26	0xaaa5	-0.0519
27	0xa85d	-0.0341
28	0x2b12	0.05524
29	0xa959	-0.04178
30	0xaafc	-0.05457
31	0x2ec1	0.1055
32	0xa9a8	-0.0442
33	0xa11e	-0.009995
34	0xa741	-0.02834
35	0xa089	-0.00886
36	0x2d0e	0.079
37	0xac1b	-0.06415
38	0x2a30	0.04834
39	0x2cc4	0.07446
40	0xa43d	-0.01656
41	0x2a0a	0.04718
42	0x240a	0.01578
43	0x2533	0.02031
44	0x9eb3	-0.006542
45	0x2ce3	0.07635
46	0xae11	-0.0948
47	0xac08	-0.063
48	0x3074	0.1392
49	0x1b7b	0.003653
50	0xa79b	-0.02971
51	0xad8c	-0.0867
52	0xaee9	-0.108
53	0xa44d	-0.0168
54	0xad1a	-0.0797
55	0x2fe9	0.1236
56	0x173d	0.001767
57	0x2fc3	0.1213
58	0xa6b8	-0.02625
59	0x2666	0.025
60	0x2ab2	0.0523
61	0x27b0	0.03003
62	0x29b3	0.04453
63	0xa4a6	-0.01816
64	0x24be	0.01852
65	0x275f	0.0288
66	0xb11c	-0.1597
67	0xa659	-0.0248
68	0x2b72	0.05817
69	0xab9b	-0.05942
70	0x1810	0.001984
71	0xa819	-0.032
72	0xa7d1	-0.03053
73	0x2334	0.01407
74	0xa3d1	-0.01527
75	0xac60	-0.06836
76	0xa065	-0.00858
77	0x2ce4	0.0764
78	0xaa64	-0.04993
79	0xb158	-0.167
80	0x2f2b	0.112
81	0xaa98	-0.0515
82	0x2d94	0.08716
83	0xaa7b	-0.05063
84	0xa9ef	-0.04636
85	0x16e5	0.001683
86	0xadba	-0.0895
87	0x9c4c	-0.004196
88	0x2c86	0.0707
89	0x25d8	0.02283
90	0xa6ef	-0.02708
91	0xa68f	-0.02562
92	0x25cb	0.02263
93	0x9ebb	-0.006573
94	0x2504	0.01959
95	0xa8e5	-0.03824
96	0x2c77	0.06976
97	0x299a	0.04376
98	0xa5bc	-0.0224
99	0x2d7d	0.08575
100	0x2a35	0.0485
101	0x2c0e	0.06335
102	0x2014	0.007965
103	0xa1d0	-0.01135
104	0x9eaf	-0.006527
105	0x2c90	0.0713
106	0x2978	0.04272
107	0x1dd9	0.00571
108	0x18ab	0.00228
109	0xa56d	-0.0212
110	0xad00	-0.0781
111	0xade3	-0.092
112	0xa907	-0.03928
113	0xa4a6	-0.01816
114	0x2da8	0.0884
115	0x2c38	0.0659
116	0x18f8	0.002426
117	0x890e	-0.0001543
118	0xa27d	-0.01267
119	0x2503	0.01958
120	0xac16	-0.06384
121	0xac76	-0.0697
122	0x9d5e	-0.00524
123	0x3041	0.1329
124	0x1e60	0.006226
125	0x2046	0.00835
126	0xa22c	-0.012054
127	0x29e6	0.04608
128	0xac91	-0.07135
129	0x2371	0.014534
130	0x1d4b	0.00517
131	0xae86	-0.1019
132	0xb16c	-0.1694
133	0xab08	-0.05493
134	0x24fe	0.0195
135	0x2e02	0.0939
136	0xa85d	-0.0341
137	0x27b6	0.03012
138	0xaa98	-0.0515
139	0x1abb	0.003286
140	0x2190	0.010864
141	0x2a09	0.04715
142	0xae0d	-0.09454
143	0x2304	0.0137
144	0xa7b9	-0.03017
145	0x2d84	0.0862
146	0x2844	0.03333
147	0xa43f	-0.01659
148	0x9c03	-0.003918
149	0x1c53	0.004223
150	0x22c7	0.01324
151	0xa516	-0.01987
152	0x2c72	0.06946
153	0xa9a2	-0.044
154	0x26be	0.02634
155	0x2d82	0.08606
156	0x2b25	0.05582
157	0x2734	0.02814
158	0x9f7b	-0.007305
159	0x28c8	0.03735
160	0x2883	0.03525
161	0xab05	-0.05484
162	0xa78d	-0.0295
163	0x1c04	0.00392
164	0x2c52	0.0675
165	0x2832	0.03278
166	0x205c	0.008514
167	0xa6d9	-0.02675
168	0x255a	0.0209
169	0x2dac	0.0886
170	0xb01b	-0.1283
171	0xaa81	-0.0508
172	0xa423	-0.01616
173	0x2b1e	0.0556
174	0x27e4	0.03082
175	0xa956	-0.0417
176	0xad6d	-0.0848
177	0xa6bf	-0.02635
178	0xacb0	-0.07324
179	0x2bd9	0.0613
180	0xa130	-0.01013
181	0x2aed	0.0541
182	0xa17b	-0.010704
183	0xa0f2	-0.00966
184	0xaddb	-0.0915
185	0x2ced	0.07697
186	0x9da3	-0.005505
187	0x16b7	0.001639
188	0x2068	0.008606
189	0xa995	-0.0436
190	0xa601	-0.02345
191	0x28a8	0.03638
192	0xa4f1	-0.0193
193	0x99a9	-0.002764
194	0x2e95	0.10284
195	0x2eee	0.1083
196	0xa444	-0.01666
197	0xa7eb	-0.03093
198	0xab79	-0.05838
199	0x21c2	0.011246
200	0xaae8	-0.05396
201	0xabf2	-0.06207
202	0x28d7	0.0378
203	0x2dda	0.09143
204	0x291b	0.0399
205	0x2a2f	0.0483
206	0xa86e	-0.0346
207	0x2605	0.02351
208	0x2935	0.04068
209	0x20e4	0.00955
210	0xa6d6	-0.0267
211	0x2d02	0.07825
212	0xadbc	-0.0896
213	0x2cbd	0.07404
214	0xacdd	-0.076
215	0x2452	0.01688
216	0x2cfa	0.07776
217	0x2e82	0.1017
218	0x2fc2	0.1212
219	0x2cea	0.0768
220	0x0d0a	0.0003076
221	0xa1d9	-0.01142
222	0xb176	-0.1707
223	0x2a9e	0.0517
224	0xabd2	-0.0611
225	0xa9b8	-0.04468
226	0x2a93	0.05136
227	0x2c59	0.06793
228	0x3025	0.1295
229	0x1e8b	0.00639
230	0xa013	-0.00796
231	0xaf0a	-0.11
232	0x2e4c	0.0984
233	0x285e	0.03412
234	0x23b2	0.01503
235	0x28ee	0.0385
236	0xa68f	-0.02562
237	0x243a	0.01651
238	0xaddd	-0.0916
239	0xaba7	-0.05978
240	0x982b	-0.002035
241	0x262a	0.02408
242	0x9c27	-0.004055
243	0xa25a	-0.012405
244	0xa49e	-0.01804
245	0x279a	0.0297
246	0xa77c	-0.02924
247	0xa949	-0.0413
248	0x2e2f	0.0966
249	0x2d6c	0.0847
250	0xac58	-0.0679
251	0xa97e	-0.0429
252	0x9e83	-0.00636
253	0x9d72	-0.005318
254	0xa42a	-0.01627
255	0xa790	-0.02954

conv4.bias f2 [4]
0	0x9dc5	-0.005634
1	0x2829	0.0325
2	0x2a9d	0.05167
3	0x2a37	0.04855

conv5.weight f2 [3, 3, 1, 1]
0	0x3c00	1.0
1	0x0000	0.0
2	0x3f18	1.773
3	0x3c00	1.0
4	0xb9b6	-0.714
5	0xb581	-0.344
6	0x3c00	1.0
7	0x3d9d	1.403
8	0x0000	0.0
