CUDA-EP_120FPS/ycrcb-bgr-sr-3x-only1slice-FP16.onnx (onnx, 125006 bytes, 10 tensors)

conv.weight f2 [3, 3, 1, 1]
0	0x2f4c	0.114
1	0x38b2	0.587
2	0x34c9	0.299
3	0xad34	-0.0813
4	0xb6b2	-0.4185
5	0x37ff	0.4998
6	0x3801	0.5005
7	0xb54c	-0.331
8	0xb165	-0.1686

conv1.weight f2 [64, 1, 5, 5]
0	0xac08	-0.063
1	0xa076	-0.00871
2	0xa8ab	-0.03647
3	0x24db	0.01897
4	0x2f3f	0.1132
5	0x3385	0.235
6	0x3333	0.225
7	0xa0a7	-0.00909
8	0xb42a	-0.2603
9	0xaffd	-0.1248
10	0xb450	-0.2695
11	0x2304	0.0137
12	0xab00	-0.0547
13	0x2f81	0.11725
14	0x3018	0.1279
15	0x3197	0.1747
16	0x2fbf	0.12103
17	0xaf56	-0.1146
18	0x31fe	0.1873
19	0xb482	-0.2817
20	0x2f76	0.1166
21	0x33d2	0.2444
22	0x1e91	0.006413
23	0xb427	-0.2595
24	0x2839	0.033
25	0xa9d0	-0.0454
26	0xad1f	-0.08
27	0xacec	-0.0769
28	0x3014	0.1274
29	0x2a6c	0.05017
30	0x323c	0.1948
31	0x28c1	0.03714
32	0x33b1	0.2404
33	0xb3e6	-0.2468
34	0xae2c	-0.09644
35	0xb020	-0.1289
36	0x9d14	-0.00496
37	0xa97f	-0.04294
38	0x356d	0.339
39	0x9b7e	-0.003658
40	0xb07b	-0.14
41	0x2d74	0.0852
42	0x3074	0.1392
43	0xa244	-0.01224
44	0x968b	-0.001597
45	0xa72d	-0.02803
46	0x31bb	0.1791
47	0xb59c	-0.3506
48	0x300a	0.1262
49	0xb075	-0.1393
50	0x2833	0.0328
51	0xb693	-0.411
52	0xb217	-0.1903
53	0x2f67	0.11566
54	0xa9b1	-0.04446
55	0x284e	0.03363
56	0xb476	-0.2788
57	0xacbb	-0.0739
58	0xa658	-0.02478
59	0x241e	0.01608
60	0x2d95	0.0872
61	0x3490	0.2852
62	0x35bc	0.3584
63	0x3236	0.1941
64	0x2dc3	0.09
65	0xa58f	-0.02171
66	0xac4c	-0.06714
67	0x2a1a	0.04767
68	0xacc1	-0.0743
69	0x997e	-0.002682
70	0x3036	0.1316
71	0x293c	0.0409
72	0xa526	-0.02011
73	0xacb1	-0.0733
74	0x2c01	0.06256
75	0x2cf3	0.07733
76	0x9a0b	-0.00295
77	0xaf1c	-0.1111
78	0x3623	0.3835
79	0x2f97	0.1186
80	0xb5a6	-0.353
81	0x33f8	0.249
82	0x2f6a	0.11584
83	0xb485	-0.2825
84	0x282d	0.03262
85	0x35d9	0.3655
86	0x261f	0.02391
87	0xb40a	-0.2524
88	0x2f9a	0.1188
89	0xa784	-0.02936
90	0xaf3b	-0.113
91	0xade5	-0.0921
92	0x9d76	-0.005333
93	0xb02c	-0.1304
94	0x3460	0.2734
95	0x2cb7	0.07367
96	0xb039	-0.132
97	0x2877	0.03488
98	0xa499	-0.01796
99	0xb54e	-0.3315
100	0x3055	0.1354
101	0xb10b	-0.1576
102	0x2d99	0.08746
103	0xae94	-0.1028
104	0xa367	-0.01446
105	0xb61b	-0.3816
106	0x2de2	0.0919
107	0x34a0	0.289
108	0xa8e9	-0.03836
109	0x2d59	0.08356
110	0x989a	-0.002247
111	0x318e	0.1736
112	0xabb6	-0.06024
113	0x2ec2	0.1056
114	0xb43c	-0.2646
115	0x2d61	0.08405
116	0xad0e	-0.079
117	0xa33f	-0.01415
118	0x24cf	0.01878
119	0x288f	0.0356
120	0x2dc9	0.0904
121	0x2aa1	0.0518
122	0xb4e3	-0.3054
123	0x2c1a	0.0641
124	0x2cf9	0.0777
125	0x363a	0.3892
126	0xa7fe	-0.03122
127	0xaff2	-0.12415
128	0xac56	-0.06775
129	0x30fd	0.1559
130	0xb006	-0.1257
131	0xb472	-0.2778
132	0xa35a	-0.01436
133	0x2498	0.01794
134	0x3468	0.2754
135	0xb1c4	-0.1802
136	0xaf29	-0.1119
137	0x29c5	0.04507
138	0x3107	0.1571
139	0xb14d	-0.1656
140	0x34aa	0.2915
141	0xb403	-0.2507
142	0x20a0	0.00903
143	0x0c3d	0.0002587
144	0xad9b	-0.0876
145	0x2277	0.01263
146	0x346d	0.2766
147	0xa8a3	-0.03622
148	0x312d	0.1617
149	0xb25d	-0.1989
150	0xad95	-0.0872
151	0x2c17	0.0639
152	0x2ee9	0.108
153	0xb078	-0.1396
154	0x2bc5	0.0607
155	0x2bc3	0.06064
156	0xa82a	-0.03253
157	0xaa06	-0.04706
158	0x20bd	0.009254
159	0x2dc5	0.09015
160	0x242d	0.01631
161	0xaa61	-0.04984
162	0xa4c7	-0.01866
163	0xa417	-0.01598
164	0xafe3	-0.1232
165	0x9e09	-0.005894
166	0x20b5	0.00919
167	0x39cb	0.724
168	0x3100	0.1562
169	0x2c40	0.0664
170	0x176b	0.001811
171	0xafd1	-0.12213
172	0x2b84	0.05872
173	0xb1dc	-0.1831
174	0xac96	-0.07166
175	0x3529	0.3225
176	0x2cbb	0.0739
177	0x30ff	0.1561
178	0x23d3	0.01528
179	0x3255	0.1979
180	0x2f65	0.11554
181	0xae1d	-0.0955
182	0xb5ec	-0.37
183	0x2cd1	0.07526
184	0x0e51	0.0003855
185	0xb61f	-0.3826
186	0xb1a4	-0.1763
187	0x2242	0.01222
188	0x2f95	0.11847
189	0xb11c	-0.1597
190	0x3196	0.1746
191	0x2a0b	0.0472
192	0xb458	-0.2715
193	0x387a	0.5596
194	0xb010	-0.127
195	0xa972	-0.04254
196	0xac39	-0.066
197	0xb2b9	-0.2101
198	0x2e3d	0.0975
199	0x2c2e	0.0653
200	0x2a96	0.05145
201	0xae04	-0.094
202	0x2bb8	0.0603
203	0x2f34	0.11255
204	0x2e93	0.1027
205	0xb201	-0.1876
206	0x332c	0.2241
207	0xad10	-0.0791
208	0xb49d	-0.2883
209	0x31dd	0.1832
210	0xae82	-0.1017
211	0x2e30	0.0967
212	0xb475	-0.2786
213	0xadac	-0.0886
214	0x3534	0.3252
215	0x31c4	0.1802
216	0xb069	-0.1378
217	0xb05e	-0.1365
218	0x3819	0.512
219	0xb14b	-0.1654
220	0xb327	-0.2235
221	0xa62b	-0.0241
222	0x24c0	0.01855
223	0xacc4	-0.07446
224	0x30e2	0.1526
225	0x2c4c	0.06714
226	0xa77f	-0.02928
227	0x2514	0.01984
228	0x2d3c	0.0818
229	0xb0dc	-0.1519
230	0x3269	0.2003
231	0xb384	-0.2349
232	0xb2cf	-0.2128
233	0x32af	0.2089
234	0xaf06	-0.10974
235	0xb5d0	-0.3633
236	0x3132	0.1624
237	0x283f	0.03317
238	0xb3b6	-0.241
239	0xac38	-0.0659
240	0x30f5	0.1549
241	0xb5bc	-0.3584
242	0x2ba3	0.05966
243	0x2fad	0.11993
244	0x348d	0.2844
245	0xae33	-0.09686
246	0x351a	0.3188
247	0x3136	0.1628
248	0xb430	-0.2617
249	0x2f23	0.1115
250	0x2c94	0.07153
251	0xa7d3	-0.03056
252	0xb421	-0.258
253	0x2fa4	0.1194
254	0x2dfa	0.0934
255	0xabdc	-0.0614

conv1.bias f2 [64]
0	0xa921	-0.04007
1	0x2a80	0.05078
2	0x9945	-0.002573
3	0xa543	-0.02055
4	0x260f	0.02367
5	0xa3f2	-0.01552
6	0xb635	-0.388
7	0xaeb0	-0.1045
8	0xaaf5	-0.05435
9	0x2f1f	0.11127
10	0x2f21	0.1114
11	0x18c1	0.002321
12	0x3150	0.166
13	0x2fbb	0.1208
14	0x25f6	0.02328
15	0x2d6d	0.0848
16	0xa264	-0.01248
17	0xa7a7	-0.02989
18	0x30e4	0.1528
19	0x196a	0.002644
20	0xaa87	-0.051
21	0x24b9	0.01845
22	0x28b8	0.03687
23	0x2a62	0.04987
24	0x2b6e	0.05804
25	0xa71c	-0.02777
26	0xace6	-0.07654
27	0xac4d	-0.0672
28	0xa4d6	-0.01889
29	0x2b3e	0.05658
30	0x28a8	0.03638
31	0xa8e2	-0.03815
32	0x1ff3	0.007763
33	0x2dff	0.0937
34	0xb11f	-0.16
35	0x249b	0.01799
36	0xa827	-0.03244
37	0x9eb5	-0.00655
38	0x269f	0.02586
39	0x28e9	0.03836
40	0xaac5	-0.0529
41	0xa7cd	-0.03047
42	0x2df8	0.09326
43	0x2cd2	0.0753
44	0xa436	-0.01645
45	0xabad	-0.05997
46	0xaccf	-0.07513
47	0x221a	0.01192
48	0x2560	0.021
49	0xb07f	-0.1405
50	0xb166	-0.1687
51	0x281f	0.0322
52	0x2714	0.02765
53	0xb409	-0.2522
54	0xad25	-0.0804
55	0x2720	0.02783
56	0xaffa	-0.12463
57	0x2f49	0.11383
58	0xab13	-0.05527
59	0x2c61	0.0684
60	0xa699	-0.02577
61	0x1eb7	0.006557
62	0x2550	0.02075
63	0xa87e	-0.0351

conv2.weight f2 [64, 64, 3, 3]
0	0x9e27	-0.00601
1	0xa45c	-0.01703
2	0xa8e7	-0.0383
3	0xa0fa	-0.00972
4	0xa8ec	-0.03845
5	0xa678	-0.02527
6	0x2905	0.0392
7	0x2468	0.01721
8	0xa95c	-0.04187
9	0x9fa7	-0.007473
10	0x2e53	0.0988
11	0xae19	-0.0953
12	0x274c	0.0285
13	0x2ecd	0.10626
14	0x2fc9	0.12164
15	0xad57	-0.08344
16	0xa252	-0.012344
17	0xac17	-0.0639
18	0x227f	0.01269
19	0xa6ab	-0.02605
20	0xabe2	-0.06158
21	0x30f5	0.1549
22	0x2d60	0.084
23	0xa51c	-0.01996
24	0x2ca3	0.07245
25	0xa9e5	-0.04605
26	0xa4bc	-0.0185
27	0xad60	-0.084
28	0xaefa	-0.109
29	0x3015	0.1276
30	0xac60	-0.06836
31	0xad58	-0.0835
32	0xaebc	-0.1052
33	0xb084	-0.1411
34	0x3409	0.2522
35	0x291a	0.03986
36	0x2fdd	0.12286
37	0x2b72	0.05817
38	0xb023	-0.1293
39	0xae39	-0.0972
40	0xa68b	-0.02556
41	0xaab3	-0.05234
42	0xabfc	-0.06238
43	0x2edc	0.1072
44	0xacf4	-0.0774
45	0x324e	0.197
46	0x2db6	0.08923
47	0xaafe	-0.05463
48	0x2a38	0.04858
49	0x197b	0.002676
50	0xad90	-0.0869
51	0xb2f0	-0.2168
52	0x2825	0.03238
53	0x25c5	0.02254
54	0x29fb	0.04672
55	0x3562	0.3364
56	0x28db	0.03793
57	0xae41	-0.0977
58	0xb6da	-0.4282
59	0x380a	0.505
60	0x2e33	0.09686
61	0xb48d	-0.2844
62	0xacea	-0.0768
63	0xb0a9	-0.1456
64	0xb26b	-0.2006
65	0xb29f	-0.2069
66	0x2f87	0.1176
67	0xb528	-0.3223
68	0xb89f	-0.5776
69	0xadfe	-0.0936
70	0xb481	-0.2815
71	0xacbc	-0.074
72	0x2fa9	0.1197
73	0xa94f	-0.04147
74	0x30d9	0.1515
75	0xadef	-0.0927
76	0x2cac	0.073
77	0x2ad6	0.0534
78	0xa7f2	-0.03104
79	0x2c62	0.0685
80	0xaa46	-0.049
81	0xb12f	-0.162
82	0xb251	-0.1974
83	0xaf4f	-0.1142
84	0xb400	-0.25
85	0x324f	0.1971
86	0xad77	-0.0854
87	0x9fb2	-0.007515
88	0xab7c	-0.05847
89	0xa307	-0.013725
90	0xa89a	-0.03595
91	0x295e	0.04193
92	0xaca9	-0.0728
93	0xa146	-0.0103
94	0x27c9	0.03041
95	0x2ec3	0.10565
96	0xa415	-0.01595
97	0xaf1b	-0.111
98	0xb248	-0.1963
99	0xae52	-0.09875
100	0xacae	-0.0731
101	0xa4ea	-0.0192
102	0x2d27	0.0805
103	0x2b70	0.0581
104	0xafdb	-0.12274
105	0x2dc9	0.0904
106	0xae8c	-0.1023
107	0xadcf	-0.09076
108	0x3428	0.2598
109	0x2f6f	0.11615
110	0x356a	0.3384
111	0x33b5	0.2408
112	0xb01d	-0.1285
113	0xb092	-0.1428
114	0x1c3d	0.00414
115	0xb6c9	-0.424
116	0x2ef6	0.10876
117	0xaf42	-0.1134
118	0x2f48	0.1138
119	0x9bfa	-0.003895
120	0xaaba	-0.05255
121	0xa8e1	-0.03812
122	0xad5d	-0.0838
123	0xad89	-0.0865
124	0xa89a	-0.03595
125	0xb2b2	-0.2092
126	0x1896	0.00224
127	0xae0f	-0.09467
128	0x2c3b	0.0661
129	0xa897	-0.03586
130	0x2432	0.01639
131	0xa999	-0.04373
132	0xa112	-0.0099
133	0x280a	0.03156
134	0x2826	0.0324
135	0x29ac	0.0443
136	0x2c45	0.0667
137	0xac88	-0.0708
138	0xab90	-0.05908
139	0x2e6a	0.1002
140	0xaad3	-0.0533
141	0x2cd3	0.0754
142	0xae3b	-0.09735
143	0x26a2	0.02591
144	0xb13e	-0.1638
145	0x2e1a	0.09534
146	0x2259	0.0124
147	0x2af4	0.05432
148	0xada7	-0.0883
149	0xb19c	-0.1753
150	0x2efa	0.109
151	0xa574	-0.0213
152	0x2fb5	0.1204
153	0xa633	-0.02422
154	0xad81	-0.086
155	0xb170	-0.1699
156	0xac1a	-0.0641
157	0xadf5	-0.0931
158	0xad4e	-0.0829
159	0x321a	0.1907
160	0x2f2f	0.11224
161	0x311c	0.1597
162	0x940b	-0.000987
163	0xb051	-0.1349
164	0x3102	0.1565
165	0xb2a2	-0.2073
166	0xac6d	-0.06915
167	0xb39d	-0.2379
168	0x3259	0.1984
169	0x2fac	0.1199
170	0x34f6	0.31
171	0x2ccf	0.07513
172	0xaa3e	-0.04877
173	0x2de5	0.0921
174	0x2cb0	0.07324
175	0x3230	0.1934
176	0x3353	0.2289
177	0xb244	-0.1958
178	0xb080	-0.1406
179	0x2c89	0.07086
180	0xad3e	-0.0819
181	0x2c30	0.0654
182	0x2b99	0.05936
183	0x2fd8	0.12256
184	0xb045	-0.1334
185	0xa404	-0.01569
186	0x3015	0.1276
187	0x2b4c	0.057
188	0xb357	-0.2294
189	0x2ce3	0.07635
190	0xa55d	-0.02095
191	0x2724	0.0279
192	0x3319	0.2218
193	0x2c97	0.0717
194	0x2732	0.0281
195	0xb1c7	-0.1805
196	0x28b8	0.03687
197	0x30c5	0.149
198	0xafa1	-0.1192
199	0xae08	-0.09424
200	0xa957	-0.04172
201	0x2f3e	0.11316
202	0x1f26	0.00698
203	0xb252	-0.1975
204	0x329c	0.2065
205	0x2c3f	0.06635
206	0x25c6	0.02255
207	0xb3c2	-0.2424
208	0xb427	-0.2595
209	0xaf7d	-0.117
210	0x30cc	0.1499
211	0x34ab	0.2917
212	0x2b2d	0.05606
213	0xaefe	-0.10925
214	0x2dcb	0.0905
215	0x2ba7	0.05978
216	0xa846	-0.0334
217	0xa980	-0.04297
218	0xa2cb	-0.01327
219	0x0c4b	0.000262
220	0x3075	0.1393
221	0xa22d	-0.01206
222	0x2912	0.0396
223	0xb1dc	-0.1831
224	0x2bf0	0.062
225	0xa70b	-0.02751
226	0xb07d	-0.1403
227	0xab14	-0.0553
228	0xb2a6	-0.2078
229	0x307c	0.1401
230	0xace2	-0.0763
231	0xa43b	-0.01653
232	0x31a0	0.1758
233	0x265c	0.02484
234	0x2f31	0.11237
235	0x2b33	0.05624
236	0x2802	0.0313
237	0xb008	-0.126
238	0x2ccb	0.0749
239	0xa42f	-0.01634
240	0x2889	0.03543
241	0xa758	-0.02869
242	0xb542	-0.3286
243	0x2c37	0.06586
244	0x2cd8	0.0757
245	0x2c87	0.07074
246	0x0f37	0.0004404
247	0x2624	0.02399
248	0x2cac	0.073
249	0x23b8	0.015076
250	0x2947	0.04123
251	0xadc4	-0.0901
252	0xa573	-0.02129
253	0x2843	0.0333
254	0x0682	9.93e-05
255	0xad62	-0.0841

conv2.bias f2 [64]
0	0xa7fa	-0.03116
1	0xa872	-0.03473
2	0x2549	0.02065
3	0x2cb1	0.0733
4	0x80ef	-1.425e-05
5	0xa6c1	-0.02638
6	0xa35b	-0.014366
7	0xab85	-0.05875
8	0xad56	-0.0834
9	0xa904	-0.03918
10	0xa7e0	-0.03076
11	0x215f	0.01049
12	0xa19d	-0.01096
13	0x26be	0.02634
14	0x2242	0.01222
15	0xaa16	-0.04755
16	0xa889	-0.03543
17	0x21a7	0.01104
18	0x9e48	-0.006134
19	0x2620	0.02393
20	0xa78b	-0.02946
21	0x24c2	0.01859
22	0x2915	0.0397
23	0x213b	0.010216
24	0x2365	0.01444
25	0xa602	-0.02347
26	0x2562	0.02103
27	0xa6ba	-0.02628
28	0xa564	-0.02106
29	0xaa3d	-0.04874
30	0xabc4	-0.06067
31	0xa1b3	-0.01113
32	0x25ca	0.02261
33	0xa80f	-0.0317
34	0x1c87	0.00442
35	0x9ddb	-0.00572
36	0x2040	0.0083
37	0xac37	-0.06586
38	0xa949	-0.0413
39	0x27b0	0.03003
40	0xa688	-0.02551
41	0x9e77	-0.006313
42	0xad00	-0.0781
43	0xa442	-0.01663
44	0x1d84	0.005386
45	0x2aea	0.05402
46	0xa025	-0.008095
47	0x2abb	0.05258
48	0x26de	0.02682
49	0xa392	-0.014786
50	0x22cc	0.013275
51	0xa438	-0.01648
52	0xa21c	-0.01193
53	0xa267	-0.012505
54	0x211e	0.009995
55	0x12ca	0.0008287
56	0xaa1a	-0.04767
57	0xa6e6	-0.02695
58	0xa94e	-0.04144
59	0xa5ba	-0.02237
60	0x9c5f	-0.00427
61	0x256e	0.02121
62	0x255c	0.02094
63	0x1f22	0.006966

conv3.weight f2 [32, 64, 3, 3]
0	0xa94b	-0.04135
1	0xae0b	-0.0944
2	0xae27	-0.0961
3	0x2df2	0.0929
4	0x245e	0.01706
5	0x2b04	0.0548
6	0xab07	-0.0549
7	0x2a96	0.05145
8	0xabf2	-0.06207
9	0xa73d	-0.02827
10	0x258c	0.02167
11	0x2efc	0.10913
12	0xab36	-0.05634
13	0x8811	-0.0001241
14	0x2857	0.0339
15	0xaa16	-0.04755
16	0x287b	0.035
17	0x3013	0.1273
18	0xaf80	-0.1172
19	0xa80a	-0.03156
20	0x2d11	0.07916
21	0x99d7	-0.002851
22	0x2ca5	0.0726
23	0x2a66	0.05
24	0x2670	0.02515
25	0x2caf	0.0732
26	0x21ae	0.01109
27	0x22d7	0.01336
28	0xa374	-0.01456
29	0x1c95	0.004475
30	0x1e91	0.006413
31	0x2836	0.0329
32	0x24b4	0.01837
33	0xa863	-0.03427
34	0xa8ec	-0.03845
35	0xa7c7	-0.03038
36	0x2aab	0.0521
37	0xaeff	-0.1093
38	0xa4d1	-0.01881
39	0x2e82	0.1017
40	0x309f	0.1444
41	0x2f71	0.1163
42	0x1f47	0.007107
43	0x2974	0.0426
44	0xaa92	-0.05133
45	0x2d25	0.0804
46	0x1fd1	0.007633
47	0xa830	-0.0327
48	0xa50e	-0.01974
49	0x31b4	0.1782
50	0x2cd6	0.07556
51	0x2aac	0.05212
52	0xaf32	-0.1124
53	0xa385	-0.01469
54	0x2ca1	0.0723
55	0x2df9	0.0933
56	0xa836	-0.0329
57	0xac73	-0.0695
58	0x27e4	0.03082
59	0x2c92	0.0714
60	0x2737	0.02818
61	0xa491	-0.01784
62	0x2419	0.016
63	0xa136	-0.01018
64	0x2758	0.02869
65	0x2c05	0.0628
66	0x3053	0.1351
67	0x3220	0.1914
68	0xa6c1	-0.02638
69	0x3b3f	0.906
70	0x353b	0.327
71	0x388b	0.568
72	0x2b79	0.05838
73	0x2f46	0.11365
74	0xac60	-0.06836
75	0x2546	0.0206
76	0x2451	0.01686
77	0x2ba1	0.0596
78	0xaef8	-0.1089
79	0x2602	0.02347
80	0xa9aa	-0.04425
81	0x30ca	0.1497
82	0x2789	0.02943
83	0x33aa	0.2395
84	0xa63e	-0.02438
85	0xa4ef	-0.01927
86	0x9d03	-0.004894
87	0xaaae	-0.0522
88	0x1dbd	0.005604
89	0x2a2b	0.0482
90	0x2ae0	0.0537
91	0x2930	0.04053
92	0x29d0	0.0454
93	0xa939	-0.0408
94	0x9964	-0.002632
95	0xac9d	-0.0721
96	0xad33	-0.08124
97	0xae4c	-0.0984
98	0x2c5e	0.06824
99	0xa81a	-0.03204
100	0x2ca6	0.07263
101	0x2913	0.03964
102	0x28a4	0.03625
103	0xa9c6	-0.0451
104	0x9fb3	-0.00752
105	0xa03c	-0.00827
106	0xa842	-0.03326
107	0x2d15	0.0794
108	0x2731	0.02809
109	0x2575	0.02132
110	0xabb7	-0.06027
111	0x1d3b	0.005108
112	0x22d1	0.01331
113	0x1977	0.002668
114	0x295e	0.04193
115	0xa07e	-0.00877
116	0x29e2	0.04596
117	0xafc4	-0.12134
118	0x27c9	0.03041
119	0x2816	0.03192
120	0x2d1e	0.07996
121	0x10aa	0.0005693
122	0xa87a	-0.03497
123	0xa48c	-0.01776
124	0x28c8	0.03735
125	0x8c83	-0.0002754
126	0xb387	-0.2352
127	0x3146	0.1648
128	0xab27	-0.05588
129	0x2e39	0.0972
130	0x2669	0.02504
131	0xa73a	-0.02823
132	0x2f0a	0.11
133	0xb397	-0.2372
134	0xa5f1	-0.02321
135	0xa3d9	-0.01533
136	0x2585	0.02156
137	0x1805	0.001963
138	0xa67d	-0.02534
139	0x2c03	0.0627
140	0xa747	-0.02843
141	0x220d	0.01182
142	0x2b81	0.05862
143	0xae01	-0.0938
144	0xae29	-0.09625
145	0x3557	0.3337
146	0x30b5	0.1471
147	0x9a83	-0.00318
148	0x313f	0.164
149	0x2f5b	0.1149
150	0xadd4	-0.09106
151	0x22ea	0.013504
152	0xa795	-0.02962
153	0xb129	-0.1613
154	0xb474	-0.2783
155	0x2c53	0.06757
156	0x29bb	0.04477
157	0x2353	0.014305
158	0x2e19	0.0953
159	0x2c03	0.0627
160	0x1a3d	0.003046
161	0x292a	0.04034
162	0xad99	-0.08746
163	0x2e2e	0.09656
164	0x9d08	-0.004913
165	0x2db0	0.08887
166	0xa4d7	-0.0189
167	0x28a4	0.03625
168	0x2726	0.02792
169	0xadca	-0.09045
170	0x2924	0.04016
171	0xa7ac	-0.02997
172	0xb389	-0.2355
173	0x3178	0.1709
174	0x2029	0.008125
175	0x2e6e	0.10046
176	0x2dd9	0.0914
177	0x2791	0.02956
178	0xb08b	-0.142
179	0x2a85	0.05093
180	0x8049	-4.35e-06
181	0x214e	0.01036
182	0x21d2	0.01137
183	0x2469	0.01723
184	0x2ed3	0.1066
185	0x2716	0.02768
186	0x2c20	0.06445
187	0xaa03	-0.04697
188	0xa5a3	-0.02202
189	0x32e6	0.2156
190	0x32d2	0.2131
191	0x1d88	0.0054
192	0x232d	0.014015
193	0x2de1	0.09186
194	0xacc7	-0.07465
195	0x2c56	0.06775
196	0xa323	-0.01394
197	0xadf3	-0.09296
198	0xa417	-0.01598
199	0xab4a	-0.05695
200	0x2ca1	0.0723
201	0x2d89	0.0865
202	0x2ffe	0.1249
203	0x2ac6	0.05292
204	0x0ec3	0.0004127
205	0x242b	0.01628
206	0xaa6d	-0.0502
207	0x245a	0.017
208	0x2443	0.01665
209	0xad25	-0.0804
210	0xaa27	-0.04807
211	0xaa3f	-0.0488
212	0xa5e4	-0.02301
213	0xaa9e	-0.0517
214	0xac01	-0.06256
215	0x25b8	0.02234
216	0xa670	-0.02515
217	0x348e	0.2847
218	0x258a	0.02164
219	0x309c	0.144
220	0x2cd1	0.07526
221	0x9dff	-0.005856
222	0x2bcb	0.06088
223	0x1853	0.002111
224	0xaccd	-0.075
225	0x2ff8	0.1245
226	0x2cc9	0.07477
227	0xae33	-0.09686
228	0xb011	-0.1271
229	0x246f	0.01732
230	0x2e9d	0.10333
231	0xa7a7	-0.02989
232	0xa4d4	-0.01886
233	0xa9c9	-0.0452
234	0x28d2	0.03766
235	0xabb1	-0.0601
236	0x2ffa	0.12463
237	0xaa5e	-0.04974
238	0x2dc1	0.0899
239	0xa7f9	-0.03114
240	0x23fa	0.01558
241	0x207f	0.00878
242	0x9e12	-0.005928
243	0xae44	-0.0979
244	0x2515	0.01985
245	0x2d05	0.0784
246	0xa9ce	-0.04535
247	0xa863	-0.03427
248	0xabaf	-0.06003
249	0x1545	0.0012865
250	0x2d21	0.08014
251	0x9e79	-0.00632
252	0x2b12	0.05524
253	0x2cf0	0.07715
254	0xac6e	-0.0692
255	0x2249	0.012276

conv3.bias f2 [32]
0	0x237d	0.014626
1	0x278e	0.02951
2	0xab27	-0.05588
3	0xa67d	-0.02534
4	0xadb6	-0.08923
5	0x24cb	0.01872
6	0xa311	-0.0138
7	0x20d1	0.00941
8	0xa821	-0.03226
9	0x2375	0.014565
10	0xa1fe	-0.0117
11	0x2120	0.01001
12	0xa9a3	-0.04404
13	0x25a8	0.0221
14	0x1a10	0.00296
15	0x1d31	0.00507
16	0xa470	-0.01733
17	0xa886	-0.03534
18	0xad26	-0.08044
19	0xa4b1	-0.01833
20	0xaa24	-0.04797
21	0x29b0	0.04443
22	0x2491	0.01784
23	0xa609	-0.02357
24	0xa9b8	-0.04468
25	0x961f	-0.001494
26	0xaa4d	-0.04922
27	0x1ce7	0.004787
28	0xa73b	-0.02824
29	0xa9f5	-0.04654
30	0xa91e	-0.03998
31	0xa41a	-0.01602

conv4.weight f2 [9, 32, 3, 3]
0	0x2828	0.03247
1	0x237b	0.01461
2	0xa477	-0.01744
3	0xa43c	-0.01654
4	0xa439	-0.0165
5	0x2414	0.01593
6	0xa711	-0.0276
7	0xad2f	-0.081
8	0x2a24	0.04797
9	0x1a57	0.003096
10	0x2dd6	0.0912
11	0x2240	0.01221
12	0xadac	-0.0886
13	0x2471	0.01735
14	0x2b92	0.05914
15	0x1817	0.001997
16	0x2a04	0.047
17	0xa4fb	-0.01945
18	0xa837	-0.03293
19	0xac72	-0.06946
20	0x9c35	-0.00411
21	0x28db	0.03793
22	0xa410	-0.01587
23	0xa207	-0.01177
24	0x2c31	0.0655
25	0x9b4c	-0.003563
26	0xa03a	-0.008255
27	0xaa54	-0.04944
28	0xac83	-0.0705
29	0x2255	0.01237
30	0xa236	-0.01213
31	0x3132	0.1624
32	0x9ff5	-0.00777
33	0xa2a2	-0.012955
34	0xa9cc	-0.0453
35	0xa6cf	-0.0266
36	0xa9d9	-0.0457
37	0x9c23	-0.00404
38	0x2974	0.0426
39	0x2446	0.0167
40	0xb049	-0.1339
41	0x27b4	0.03009
42	0x00bc	1.12e-05
43	0x2290	0.01282
44	0x1c6f	0.00433
45	0xac44	-0.06665
46	0xb0ca	-0.1497
47	0x28ce	0.03754
48	0x2bed	0.06192
49	0x31bb	0.1791
50	0x257f	0.02147
51	0xa55d	-0.02095
52	0xa4f6	-0.01938
53	0xa324	-0.01395
54	0xafea	-0.12366
55	0x2ad9	0.0535
56	0xa539	-0.0204
57	0x2c07	0.0629
58	0x27c8	0.0304
59	0x9ff8	-0.007782
60	0xaa30	-0.04834
61	0x2c21	0.0645
62	0x9e05	-0.00588
63	0x29ad	0.04434
64	0x9006	-0.000491
65	0x2035	0.00822
66	0x1d6b	0.00529
67	0x2274	0.0126
68	0xac08	-0.063
69	0x28ec	0.03845
70	0xadd6	-0.0912
71	0x2405	0.0157
72	0xa82b	-0.03256
73	0x32d2	0.2131
74	0xafe8	-0.12354
75	0xa8ee	-0.0385
76	0x27fd	0.0312
77	0x1faf	0.007504
78	0x9c50	-0.00421
79	0x2588	0.0216
80	0xa4fc	-0.01947
81	0x2ed6	0.1068
82	0x2c77	0.06976
83	0x2578	0.02136
84	0x2454	0.0169
85	0x2a31	0.04837
86	0x2a0e	0.0473
87	0x2d34	0.0813
88	0x251e	0.01999
89	0xac50	-0.0674
90	0x2040	0.0083
91	0x34e6	0.3062
92	0x2458	0.01697
93	0x2834	0.03284
94	0x30ca	0.1497
95	0xacc0	-0.0742
96	0x2ab8	0.0525
97	0x3053	0.1351
98	0xa89e	-0.03607
99	0xab62	-0.05768
100	0x256a	0.02115
101	0x9c5d	-0.00426
102	0xa8ae	-0.03656
103	0x3131	0.1622
104	0xa4e0	-0.01904
105	0x20ca	0.00935
106	0xa9c0	-0.04492
107	0x2b8f	0.05905
108	0x2755	0.02864
109	0xa8f8	-0.03882
110	0x2c8a	0.0709
111	0x2c23	0.06464
112	0xaeef	-0.10834
113	0x2a68	0.05005
114	0x1d8e	0.005424
115	0xa54a	-0.02066
116	0x2d7a	0.0856
117	0x25cb	0.02263
118	0x2958	0.04175
119	0x1e83	0.00636
120	0x9b7d	-0.003656
121	0x2c11	0.06354
122	0xa6a6	-0.02597
123	0xa3d9	-0.01533
124	0xa93f	-0.041
125	0xa920	-0.04004
126	0x2b77	0.05832
127	0x2213	0.01186
128	0xa594	-0.02179
129	0x2b14	0.0553
130	0x9d3f	-0.005123
131	0x28fc	0.03894
132	0xa45b	-0.01701
133	0xa4b7	-0.01842
134	0x9c67	-0.0043
135	0xa90e	-0.0395
136	0xada5	-0.0882
137	0x2bcf	0.061
138	0x1d42	0.005135
139	0xa952	-0.04156
140	0x2157	0.01043
141	0x28c5	0.03726
142	0x2d37	0.0815
143	0x1f3f	0.007076
144	0x28ec	0.03845
145	0xab14	-0.0553
146	0xab05	-0.05484
147	0x28a6	0.03632
148	0x3435	0.263
149	0xad44	-0.0823
150	0xb21a	-0.1907
151	0x16c3	0.001651
152	0x26ac	0.02606
153	0x2dc0	0.08984
154	0x2b0a	0.055
155	0xa295	-0.012856
156	0x29a4	0.04407
157	0x26e7	0.02696
158	0xaeda	-0.10706
159	0x266b	0.02507
160	0xa5f8	-0.02332
161	0x9d79	-0.005344
162	0xb249	-0.1964
163	0x2cc9	0.07477
164	0xb017	-0.1278
165	0xa3dc	-0.01535
166	0x2fec	0.1238
167	0x32ee	0.2166
168	0x2e89	0.1021
169	0xacad	-0.07306
170	0x9d11	-0.004948
171	0x201e	0.00804
172	0x2a38	0.04858
173	0x1f48	0.00711
174	0xa8ce	-0.03754
175	0x2e30	0.0967
176	0xaaee	-0.05414
177	0x165b	0.001552
178	0xad4e	-0.0829
179	0x948f	-0.001113
180	0xa838	-0.03296
181	0x2294	0.01285
182	0xa5ad	-0.02217
183	0x1889	0.002214
184	0xaf1d	-0.11115
185	0x21ee	0.01158
186	0x301f	0.1288
187	0xa847	-0.03342
188	0x20b3	0.00918
189	0x2b4a	0.05695
190	0x1501	0.001222
191	0x1bd8	0.00383
192	0xb1eb	-0.1849
193	0xb262	-0.1995
194	0xa80b	-0.0316
195	0x20a7	0.00909
196	0x379d	0.4758
197	0x2f66	0.1156
198	0xafbe	-0.121
199	0x2e4a	0.09827
200	0xa4bf	-0.01854
201	0x2ea6	0.1039
202	0x28d0	0.0376
203	0x274d	0.02852
204	0x197d	0.00268
205	0x288f	0.0356
206	0x2c37	0.06586
207	0x2c6d	0.06915
208	0xacfe	-0.078
209	0x1d3a	0.005104
210	0xb065	-0.1373
211	0xac3c	-0.06616
212	0x23d8	0.01532
213	0x284b	0.03354
214	0x2c57	0.0678
215	0x99ea	-0.002888
216	0x2cd3	0.0754
217	0xa6f2	-0.02713
218	0xa275	-0.01261
219	0x2b5d	0.05753
220	0xb12d	-0.1617
221	0x2aeb	0.05405
222	0xa87b	-0.035
223	0xa119	-0.00996
224	0x2480	0.01758
225	0x2efd	0.1092
226	0xabf4	-0.06213
227	0xa63e	-0.02438
228	0xa7cb	-0.03044
229	0x2ef5	0.1087
230	0xa98d	-0.04337
231	0x2520	0.02002
232	0x2b07	0.0549
233	0x2627	0.02403
234	0x92f8	-0.0008507
235	0xa876	-0.03485
236	0x2c78	0.0698
237	0x1db4	0.00557
238	0x3027	0.1298
239	0xa431	-0.01637
240	0xa046	-0.00835
241	0xa83f	-0.03317
242	0xa527	-0.02013
243	0x2ba4	0.0597
244	0xabe1	-0.06155
245	0x27b7	0.03014
246	0x28f3	0.03867
247	0xac2b	-0.0651
248	0xaf23	-0.1115
249	0xa2af	-0.013054
250	0x2ca4	0.0725
251	0x2882	0.03522
252	0x9635	-0.001515
253	0xa515	-0.01985
254	0xa210	-0.01184
255	0x3322	0.2229

conv4.bias f2 [9]
0	0x2763	0.02885
1	0x2741	0.02834
2	0x27b9	0.03017
3	0x27f4	0.03107
4	0x27dd	0.03072
5	0x27ef	0.03099
6	0x26cd	0.02657
7	0x2672	0.02518
8	0x26f0	0.0271

conv5.weight f2 [3, 3, 1, 1]
0	0x3c00	1.0
1	0x0000	0.0
2	0x3f18	1.773
3	0x3c00	1.0
4	0xb9b6	-0.714
5	0xb581	-0.344
6	0x3c00	1.0
7	0x3d9d	1.403
8	0x0000	0.0
